…
================= Micronet Deep Learning Vision =================
Version: 0.2
Author: Luong Chan Hiep
Email: hiep.lchan@gmail.com
-----------------------------------------------
Working on GPU
CUDA devices count: 1
CUDA devices name: GeForce GTX 1080
=================================================================



========================= MODEL SUMMARY =========================
----------------------------------------------------------------
        Layer (type)               Output Shape         Param #
================================================================
            Conv2d-1         [-1, 32, 111, 111]             864
       BatchNorm2d-2         [-1, 32, 111, 111]              64
              ReLU-3         [-1, 32, 111, 111]               0
            Conv2d-4         [-1, 11, 111, 111]             352
       BatchNorm2d-5         [-1, 11, 111, 111]              22
              ReLU-6         [-1, 11, 111, 111]               0
            Conv2d-7           [-1, 11, 56, 56]             275
            Conv2d-8           [-1, 11, 56, 56]             121
   SeparableConv2d-9           [-1, 11, 56, 56]               0
      BatchNorm2d-10           [-1, 11, 56, 56]              22
             ReLU-11           [-1, 11, 56, 56]               0
           Conv2d-12           [-1, 11, 56, 56]             275
           Conv2d-13           [-1, 11, 56, 56]             121
  SeparableConv2d-14           [-1, 11, 56, 56]               0
      BatchNorm2d-15           [-1, 11, 56, 56]              22
 BranchSeparables-16           [-1, 11, 56, 56]               0
             ReLU-17         [-1, 32, 111, 111]               0
           Conv2d-18           [-1, 32, 56, 56]           1,568
           Conv2d-19           [-1, 11, 56, 56]             352
  SeparableConv2d-20           [-1, 11, 56, 56]               0
      BatchNorm2d-21           [-1, 11, 56, 56]              22
             ReLU-22           [-1, 11, 56, 56]               0
           Conv2d-23           [-1, 11, 56, 56]             539
           Conv2d-24           [-1, 11, 56, 56]             121
  SeparableConv2d-25           [-1, 11, 56, 56]               0
      BatchNorm2d-26           [-1, 11, 56, 56]              22
BranchSeparablesStem-27           [-1, 11, 56, 56]               0
        MaxPool2d-28           [-1, 11, 56, 56]               0
             ReLU-29         [-1, 32, 111, 111]               0
           Conv2d-30           [-1, 32, 56, 56]           1,568
           Conv2d-31           [-1, 11, 56, 56]             352
  SeparableConv2d-32           [-1, 11, 56, 56]               0
      BatchNorm2d-33           [-1, 11, 56, 56]              22
             ReLU-34           [-1, 11, 56, 56]               0
           Conv2d-35           [-1, 11, 56, 56]             539
           Conv2d-36           [-1, 11, 56, 56]             121
  SeparableConv2d-37           [-1, 11, 56, 56]               0
      BatchNorm2d-38           [-1, 11, 56, 56]              22
BranchSeparablesStem-39           [-1, 11, 56, 56]               0
        AvgPool2d-40           [-1, 11, 56, 56]               0
             ReLU-41         [-1, 32, 111, 111]               0
           Conv2d-42           [-1, 32, 56, 56]             800
           Conv2d-43           [-1, 11, 56, 56]             352
  SeparableConv2d-44           [-1, 11, 56, 56]               0
      BatchNorm2d-45           [-1, 11, 56, 56]              22
             ReLU-46           [-1, 11, 56, 56]               0
           Conv2d-47           [-1, 11, 56, 56]             275
           Conv2d-48           [-1, 11, 56, 56]             121
  SeparableConv2d-49           [-1, 11, 56, 56]               0
      BatchNorm2d-50           [-1, 11, 56, 56]              22
BranchSeparablesStem-51           [-1, 11, 56, 56]               0
        AvgPool2d-52           [-1, 11, 56, 56]               0
             ReLU-53           [-1, 11, 56, 56]               0
           Conv2d-54           [-1, 11, 56, 56]              99
           Conv2d-55           [-1, 11, 56, 56]             121
  SeparableConv2d-56           [-1, 11, 56, 56]               0
      BatchNorm2d-57           [-1, 11, 56, 56]              22
             ReLU-58           [-1, 11, 56, 56]               0
           Conv2d-59           [-1, 11, 56, 56]              99
           Conv2d-60           [-1, 11, 56, 56]             121
  SeparableConv2d-61           [-1, 11, 56, 56]               0
      BatchNorm2d-62           [-1, 11, 56, 56]              22
 BranchSeparables-63           [-1, 11, 56, 56]               0
        MaxPool2d-64           [-1, 11, 56, 56]               0
        CellStem0-65           [-1, 44, 56, 56]               0
             ReLU-66           [-1, 44, 56, 56]               0
           Conv2d-67           [-1, 22, 56, 56]             968
      BatchNorm2d-68           [-1, 22, 56, 56]              44
             ReLU-69         [-1, 32, 111, 111]               0
        AvgPool2d-70           [-1, 32, 56, 56]               0
           Conv2d-71           [-1, 11, 56, 56]             352
        ZeroPad2d-72         [-1, 32, 112, 112]               0
        AvgPool2d-73           [-1, 32, 56, 56]               0
           Conv2d-74           [-1, 11, 56, 56]             352
      BatchNorm2d-75           [-1, 22, 56, 56]              44
             ReLU-76           [-1, 22, 56, 56]               0
           Conv2d-77           [-1, 22, 29, 29]             550
           Conv2d-78           [-1, 22, 29, 29]             484
  SeparableConv2d-79           [-1, 22, 29, 29]               0
      BatchNorm2d-80           [-1, 22, 28, 28]              44
             ReLU-81           [-1, 22, 28, 28]               0
           Conv2d-82           [-1, 22, 28, 28]             550
           Conv2d-83           [-1, 22, 28, 28]             484
  SeparableConv2d-84           [-1, 22, 28, 28]               0
      BatchNorm2d-85           [-1, 22, 28, 28]              44
 BranchSeparables-86           [-1, 22, 28, 28]               0
             ReLU-87           [-1, 22, 56, 56]               0
           Conv2d-88           [-1, 22, 29, 29]           1,078
           Conv2d-89           [-1, 22, 29, 29]             484
  SeparableConv2d-90           [-1, 22, 29, 29]               0
      BatchNorm2d-91           [-1, 22, 28, 28]              44
             ReLU-92           [-1, 22, 28, 28]               0
           Conv2d-93           [-1, 22, 28, 28]           1,078
           Conv2d-94           [-1, 22, 28, 28]             484
  SeparableConv2d-95           [-1, 22, 28, 28]               0
      BatchNorm2d-96           [-1, 22, 28, 28]              44
 BranchSeparables-97           [-1, 22, 28, 28]               0
        ZeroPad2d-98           [-1, 22, 57, 57]               0
        MaxPool2d-99           [-1, 22, 29, 29]               0
      MaxPoolPad-100           [-1, 22, 28, 28]               0
            ReLU-101           [-1, 22, 56, 56]               0
          Conv2d-102           [-1, 22, 29, 29]           1,078
          Conv2d-103           [-1, 22, 29, 29]             484
 SeparableConv2d-104           [-1, 22, 29, 29]               0
     BatchNorm2d-105           [-1, 22, 28, 28]              44
            ReLU-106           [-1, 22, 28, 28]               0
          Conv2d-107           [-1, 22, 28, 28]           1,078
          Conv2d-108           [-1, 22, 28, 28]             484
 SeparableConv2d-109           [-1, 22, 28, 28]               0
     BatchNorm2d-110           [-1, 22, 28, 28]              44
BranchSeparables-111           [-1, 22, 28, 28]               0
       ZeroPad2d-112           [-1, 22, 57, 57]               0
       AvgPool2d-113           [-1, 22, 29, 29]               0
      AvgPoolPad-114           [-1, 22, 28, 28]               0
            ReLU-115           [-1, 22, 56, 56]               0
          Conv2d-116           [-1, 22, 29, 29]             550
          Conv2d-117           [-1, 22, 29, 29]             484
 SeparableConv2d-118           [-1, 22, 29, 29]               0
     BatchNorm2d-119           [-1, 22, 28, 28]              44
            ReLU-120           [-1, 22, 28, 28]               0
          Conv2d-121           [-1, 22, 28, 28]             550
          Conv2d-122           [-1, 22, 28, 28]             484
 SeparableConv2d-123           [-1, 22, 28, 28]               0
     BatchNorm2d-124           [-1, 22, 28, 28]              44
BranchSeparables-125           [-1, 22, 28, 28]               0
       AvgPool2d-126           [-1, 22, 28, 28]               0
            ReLU-127           [-1, 22, 28, 28]               0
          Conv2d-128           [-1, 22, 29, 29]             198
          Conv2d-129           [-1, 22, 29, 29]             484
 SeparableConv2d-130           [-1, 22, 29, 29]               0
     BatchNorm2d-131           [-1, 22, 28, 28]              44
            ReLU-132           [-1, 22, 28, 28]               0
          Conv2d-133           [-1, 22, 28, 28]             198
          Conv2d-134           [-1, 22, 28, 28]             484
 SeparableConv2d-135           [-1, 22, 28, 28]               0
     BatchNorm2d-136           [-1, 22, 28, 28]              44
BranchSeparables-137           [-1, 22, 28, 28]               0
       ZeroPad2d-138           [-1, 22, 57, 57]               0
       MaxPool2d-139           [-1, 22, 29, 29]               0
      MaxPoolPad-140           [-1, 22, 28, 28]               0
       CellStem1-141           [-1, 88, 28, 28]               0
            ReLU-142           [-1, 44, 56, 56]               0
       AvgPool2d-143           [-1, 44, 28, 28]               0
          Conv2d-144           [-1, 22, 28, 28]             968
       ZeroPad2d-145           [-1, 44, 57, 57]               0
       AvgPool2d-146           [-1, 44, 28, 28]               0
          Conv2d-147           [-1, 22, 28, 28]             968
     BatchNorm2d-148           [-1, 44, 28, 28]              88
            ReLU-149           [-1, 88, 28, 28]               0
          Conv2d-150           [-1, 44, 28, 28]           3,872
     BatchNorm2d-151           [-1, 44, 28, 28]              88
            ReLU-152           [-1, 44, 28, 28]               0
          Conv2d-153           [-1, 44, 28, 28]           1,100
          Conv2d-154           [-1, 44, 28, 28]           1,936
 SeparableConv2d-155           [-1, 44, 28, 28]               0
     BatchNorm2d-156           [-1, 44, 28, 28]              88
            ReLU-157           [-1, 44, 28, 28]               0
          Conv2d-158           [-1, 44, 28, 28]           1,100
          Conv2d-159           [-1, 44, 28, 28]           1,936
 SeparableConv2d-160           [-1, 44, 28, 28]               0
     BatchNorm2d-161           [-1, 44, 28, 28]              88
BranchSeparables-162           [-1, 44, 28, 28]               0
            ReLU-163           [-1, 44, 28, 28]               0
          Conv2d-164           [-1, 44, 28, 28]             396
          Conv2d-165           [-1, 44, 28, 28]           1,936
 SeparableConv2d-166           [-1, 44, 28, 28]               0
     BatchNorm2d-167           [-1, 44, 28, 28]              88
            ReLU-168           [-1, 44, 28, 28]               0
          Conv2d-169           [-1, 44, 28, 28]             396
          Conv2d-170           [-1, 44, 28, 28]           1,936
 SeparableConv2d-171           [-1, 44, 28, 28]               0
     BatchNorm2d-172           [-1, 44, 28, 28]              88
BranchSeparables-173           [-1, 44, 28, 28]               0
            ReLU-174           [-1, 44, 28, 28]               0
          Conv2d-175           [-1, 44, 28, 28]           1,100
          Conv2d-176           [-1, 44, 28, 28]           1,936
 SeparableConv2d-177           [-1, 44, 28, 28]               0
     BatchNorm2d-178           [-1, 44, 28, 28]              88
            ReLU-179           [-1, 44, 28, 28]               0
          Conv2d-180           [-1, 44, 28, 28]           1,100
          Conv2d-181           [-1, 44, 28, 28]           1,936
 SeparableConv2d-182           [-1, 44, 28, 28]               0
     BatchNorm2d-183           [-1, 44, 28, 28]              88
BranchSeparables-184           [-1, 44, 28, 28]               0
            ReLU-185           [-1, 44, 28, 28]               0
          Conv2d-186           [-1, 44, 28, 28]             396
          Conv2d-187           [-1, 44, 28, 28]           1,936
 SeparableConv2d-188           [-1, 44, 28, 28]               0
     BatchNorm2d-189           [-1, 44, 28, 28]              88
            ReLU-190           [-1, 44, 28, 28]               0
          Conv2d-191           [-1, 44, 28, 28]             396
          Conv2d-192           [-1, 44, 28, 28]           1,936
 SeparableConv2d-193           [-1, 44, 28, 28]               0
     BatchNorm2d-194           [-1, 44, 28, 28]              88
BranchSeparables-195           [-1, 44, 28, 28]               0
       AvgPool2d-196           [-1, 44, 28, 28]               0
       AvgPool2d-197           [-1, 44, 28, 28]               0
       AvgPool2d-198           [-1, 44, 28, 28]               0
            ReLU-199           [-1, 44, 28, 28]               0
          Conv2d-200           [-1, 44, 28, 28]             396
          Conv2d-201           [-1, 44, 28, 28]           1,936
 SeparableConv2d-202           [-1, 44, 28, 28]               0
     BatchNorm2d-203           [-1, 44, 28, 28]              88
            ReLU-204           [-1, 44, 28, 28]               0
          Conv2d-205           [-1, 44, 28, 28]             396
          Conv2d-206           [-1, 44, 28, 28]           1,936
 SeparableConv2d-207           [-1, 44, 28, 28]               0
     BatchNorm2d-208           [-1, 44, 28, 28]              88
BranchSeparables-209           [-1, 44, 28, 28]               0
       FirstCell-210          [-1, 264, 28, 28]               0
            ReLU-211           [-1, 88, 28, 28]               0
          Conv2d-212           [-1, 44, 28, 28]           3,872
     BatchNorm2d-213           [-1, 44, 28, 28]              88
            ReLU-214          [-1, 264, 28, 28]               0
          Conv2d-215           [-1, 44, 28, 28]          11,616
     BatchNorm2d-216           [-1, 44, 28, 28]              88
            ReLU-217           [-1, 44, 28, 28]               0
          Conv2d-218           [-1, 44, 28, 28]           1,100
          Conv2d-219           [-1, 44, 28, 28]           1,936
 SeparableConv2d-220           [-1, 44, 28, 28]               0
     BatchNorm2d-221           [-1, 44, 28, 28]              88
            ReLU-222           [-1, 44, 28, 28]               0
          Conv2d-223           [-1, 44, 28, 28]           1,100
          Conv2d-224           [-1, 44, 28, 28]           1,936
 SeparableConv2d-225           [-1, 44, 28, 28]               0
     BatchNorm2d-226           [-1, 44, 28, 28]              88
BranchSeparables-227           [-1, 44, 28, 28]               0
            ReLU-228           [-1, 44, 28, 28]               0
          Conv2d-229           [-1, 44, 28, 28]             396
          Conv2d-230           [-1, 44, 28, 28]           1,936
 SeparableConv2d-231           [-1, 44, 28, 28]               0
     BatchNorm2d-232           [-1, 44, 28, 28]              88
            ReLU-233           [-1, 44, 28, 28]               0
          Conv2d-234           [-1, 44, 28, 28]             396
          Conv2d-235           [-1, 44, 28, 28]           1,936
 SeparableConv2d-236           [-1, 44, 28, 28]               0
     BatchNorm2d-237           [-1, 44, 28, 28]              88
BranchSeparables-238           [-1, 44, 28, 28]               0
            ReLU-239           [-1, 44, 28, 28]               0
          Conv2d-240           [-1, 44, 28, 28]           1,100
          Conv2d-241           [-1, 44, 28, 28]           1,936
 SeparableConv2d-242           [-1, 44, 28, 28]               0
     BatchNorm2d-243           [-1, 44, 28, 28]              88
            ReLU-244           [-1, 44, 28, 28]               0
          Conv2d-245           [-1, 44, 28, 28]           1,100
          Conv2d-246           [-1, 44, 28, 28]           1,936
 SeparableConv2d-247           [-1, 44, 28, 28]               0
     BatchNorm2d-248           [-1, 44, 28, 28]              88
BranchSeparables-249           [-1, 44, 28, 28]               0
            ReLU-250           [-1, 44, 28, 28]               0
          Conv2d-251           [-1, 44, 28, 28]             396
          Conv2d-252           [-1, 44, 28, 28]           1,936
 SeparableConv2d-253           [-1, 44, 28, 28]               0
     BatchNorm2d-254           [-1, 44, 28, 28]              88
            ReLU-255           [-1, 44, 28, 28]               0
          Conv2d-256           [-1, 44, 28, 28]             396
          Conv2d-257           [-1, 44, 28, 28]           1,936
 SeparableConv2d-258           [-1, 44, 28, 28]               0
     BatchNorm2d-259           [-1, 44, 28, 28]              88
BranchSeparables-260           [-1, 44, 28, 28]               0
       AvgPool2d-261           [-1, 44, 28, 28]               0
       AvgPool2d-262           [-1, 44, 28, 28]               0
       AvgPool2d-263           [-1, 44, 28, 28]               0
            ReLU-264           [-1, 44, 28, 28]               0
          Conv2d-265           [-1, 44, 28, 28]             396
          Conv2d-266           [-1, 44, 28, 28]           1,936
 SeparableConv2d-267           [-1, 44, 28, 28]               0
     BatchNorm2d-268           [-1, 44, 28, 28]              88
            ReLU-269           [-1, 44, 28, 28]               0
          Conv2d-270           [-1, 44, 28, 28]             396
          Conv2d-271           [-1, 44, 28, 28]           1,936
 SeparableConv2d-272           [-1, 44, 28, 28]               0
     BatchNorm2d-273           [-1, 44, 28, 28]              88
BranchSeparables-274           [-1, 44, 28, 28]               0
      NormalCell-275          [-1, 264, 28, 28]               0
            ReLU-276          [-1, 264, 28, 28]               0
          Conv2d-277           [-1, 44, 28, 28]          11,616
     BatchNorm2d-278           [-1, 44, 28, 28]              88
            ReLU-279          [-1, 264, 28, 28]               0
          Conv2d-280           [-1, 44, 28, 28]          11,616
     BatchNorm2d-281           [-1, 44, 28, 28]              88
            ReLU-282           [-1, 44, 28, 28]               0
          Conv2d-283           [-1, 44, 28, 28]           1,100
          Conv2d-284           [-1, 44, 28, 28]           1,936
 SeparableConv2d-285           [-1, 44, 28, 28]               0
     BatchNorm2d-286           [-1, 44, 28, 28]              88
            ReLU-287           [-1, 44, 28, 28]               0
          Conv2d-288           [-1, 44, 28, 28]           1,100
          Conv2d-289           [-1, 44, 28, 28]           1,936
 SeparableConv2d-290           [-1, 44, 28, 28]               0
     BatchNorm2d-291           [-1, 44, 28, 28]              88
BranchSeparables-292           [-1, 44, 28, 28]               0
            ReLU-293           [-1, 44, 28, 28]               0
          Conv2d-294           [-1, 44, 28, 28]             396
          Conv2d-295           [-1, 44, 28, 28]           1,936
 SeparableConv2d-296           [-1, 44, 28, 28]               0
     BatchNorm2d-297           [-1, 44, 28, 28]              88
            ReLU-298           [-1, 44, 28, 28]               0
          Conv2d-299           [-1, 44, 28, 28]             396
          Conv2d-300           [-1, 44, 28, 28]           1,936
 SeparableConv2d-301           [-1, 44, 28, 28]               0
     BatchNorm2d-302           [-1, 44, 28, 28]              88
BranchSeparables-303           [-1, 44, 28, 28]               0
            ReLU-304           [-1, 44, 28, 28]               0
          Conv2d-305           [-1, 44, 28, 28]           1,100
          Conv2d-306           [-1, 44, 28, 28]           1,936
 SeparableConv2d-307           [-1, 44, 28, 28]               0
     BatchNorm2d-308           [-1, 44, 28, 28]              88
            ReLU-309           [-1, 44, 28, 28]               0
          Conv2d-310           [-1, 44, 28, 28]           1,100
          Conv2d-311           [-1, 44, 28, 28]           1,936
 SeparableConv2d-312           [-1, 44, 28, 28]               0
     BatchNorm2d-313           [-1, 44, 28, 28]              88
BranchSeparables-314           [-1, 44, 28, 28]               0
            ReLU-315           [-1, 44, 28, 28]               0
          Conv2d-316           [-1, 44, 28, 28]             396
          Conv2d-317           [-1, 44, 28, 28]           1,936
 SeparableConv2d-318           [-1, 44, 28, 28]               0
     BatchNorm2d-319           [-1, 44, 28, 28]              88
            ReLU-320           [-1, 44, 28, 28]               0
          Conv2d-321           [-1, 44, 28, 28]             396
          Conv2d-322           [-1, 44, 28, 28]           1,936
 SeparableConv2d-323           [-1, 44, 28, 28]               0
     BatchNorm2d-324           [-1, 44, 28, 28]              88
BranchSeparables-325           [-1, 44, 28, 28]               0
       AvgPool2d-326           [-1, 44, 28, 28]               0
       AvgPool2d-327           [-1, 44, 28, 28]               0
       AvgPool2d-328           [-1, 44, 28, 28]               0
            ReLU-329           [-1, 44, 28, 28]               0
          Conv2d-330           [-1, 44, 28, 28]             396
          Conv2d-331           [-1, 44, 28, 28]           1,936
 SeparableConv2d-332           [-1, 44, 28, 28]               0
     BatchNorm2d-333           [-1, 44, 28, 28]              88
            ReLU-334           [-1, 44, 28, 28]               0
          Conv2d-335           [-1, 44, 28, 28]             396
          Conv2d-336           [-1, 44, 28, 28]           1,936
 SeparableConv2d-337           [-1, 44, 28, 28]               0
     BatchNorm2d-338           [-1, 44, 28, 28]              88
BranchSeparables-339           [-1, 44, 28, 28]               0
      NormalCell-340          [-1, 264, 28, 28]               0
            ReLU-341          [-1, 264, 28, 28]               0
          Conv2d-342           [-1, 44, 28, 28]          11,616
     BatchNorm2d-343           [-1, 44, 28, 28]              88
            ReLU-344          [-1, 264, 28, 28]               0
          Conv2d-345           [-1, 44, 28, 28]          11,616
     BatchNorm2d-346           [-1, 44, 28, 28]              88
            ReLU-347           [-1, 44, 28, 28]               0
          Conv2d-348           [-1, 44, 28, 28]           1,100
          Conv2d-349           [-1, 44, 28, 28]           1,936
 SeparableConv2d-350           [-1, 44, 28, 28]               0
     BatchNorm2d-351           [-1, 44, 28, 28]              88
            ReLU-352           [-1, 44, 28, 28]               0
          Conv2d-353           [-1, 44, 28, 28]           1,100
          Conv2d-354           [-1, 44, 28, 28]           1,936
 SeparableConv2d-355           [-1, 44, 28, 28]               0
     BatchNorm2d-356           [-1, 44, 28, 28]              88
BranchSeparables-357           [-1, 44, 28, 28]               0
            ReLU-358           [-1, 44, 28, 28]               0
          Conv2d-359           [-1, 44, 28, 28]             396
          Conv2d-360           [-1, 44, 28, 28]           1,936
 SeparableConv2d-361           [-1, 44, 28, 28]               0
     BatchNorm2d-362           [-1, 44, 28, 28]              88
            ReLU-363           [-1, 44, 28, 28]               0
          Conv2d-364           [-1, 44, 28, 28]             396
          Conv2d-365           [-1, 44, 28, 28]           1,936
 SeparableConv2d-366           [-1, 44, 28, 28]               0
     BatchNorm2d-367           [-1, 44, 28, 28]              88
BranchSeparables-368           [-1, 44, 28, 28]               0
            ReLU-369           [-1, 44, 28, 28]               0
          Conv2d-370           [-1, 44, 28, 28]           1,100
          Conv2d-371           [-1, 44, 28, 28]           1,936
 SeparableConv2d-372           [-1, 44, 28, 28]               0
     BatchNorm2d-373           [-1, 44, 28, 28]              88
            ReLU-374           [-1, 44, 28, 28]               0
          Conv2d-375           [-1, 44, 28, 28]           1,100
          Conv2d-376           [-1, 44, 28, 28]           1,936
 SeparableConv2d-377           [-1, 44, 28, 28]               0
     BatchNorm2d-378           [-1, 44, 28, 28]              88
BranchSeparables-379           [-1, 44, 28, 28]               0
            ReLU-380           [-1, 44, 28, 28]               0
          Conv2d-381           [-1, 44, 28, 28]             396
          Conv2d-382           [-1, 44, 28, 28]           1,936
 SeparableConv2d-383           [-1, 44, 28, 28]               0
     BatchNorm2d-384           [-1, 44, 28, 28]              88
            ReLU-385           [-1, 44, 28, 28]               0
          Conv2d-386           [-1, 44, 28, 28]             396
          Conv2d-387           [-1, 44, 28, 28]           1,936
 SeparableConv2d-388           [-1, 44, 28, 28]               0
     BatchNorm2d-389           [-1, 44, 28, 28]              88
BranchSeparables-390           [-1, 44, 28, 28]               0
       AvgPool2d-391           [-1, 44, 28, 28]               0
       AvgPool2d-392           [-1, 44, 28, 28]               0
       AvgPool2d-393           [-1, 44, 28, 28]               0
            ReLU-394           [-1, 44, 28, 28]               0
          Conv2d-395           [-1, 44, 28, 28]             396
          Conv2d-396           [-1, 44, 28, 28]           1,936
 SeparableConv2d-397           [-1, 44, 28, 28]               0
     BatchNorm2d-398           [-1, 44, 28, 28]              88
            ReLU-399           [-1, 44, 28, 28]               0
          Conv2d-400           [-1, 44, 28, 28]             396
          Conv2d-401           [-1, 44, 28, 28]           1,936
 SeparableConv2d-402           [-1, 44, 28, 28]               0
     BatchNorm2d-403           [-1, 44, 28, 28]              88
BranchSeparables-404           [-1, 44, 28, 28]               0
      NormalCell-405          [-1, 264, 28, 28]               0
            ReLU-406          [-1, 264, 28, 28]               0
          Conv2d-407           [-1, 88, 28, 28]          23,232
     BatchNorm2d-408           [-1, 88, 28, 28]             176
            ReLU-409          [-1, 264, 28, 28]               0
          Conv2d-410           [-1, 88, 28, 28]          23,232
     BatchNorm2d-411           [-1, 88, 28, 28]             176
            ReLU-412           [-1, 88, 28, 28]               0
       ZeroPad2d-413           [-1, 88, 29, 29]               0
          Conv2d-414           [-1, 88, 15, 15]           2,200
          Conv2d-415           [-1, 88, 15, 15]           7,744
 SeparableConv2d-416           [-1, 88, 15, 15]               0
     BatchNorm2d-417           [-1, 88, 14, 14]             176
            ReLU-418           [-1, 88, 14, 14]               0
          Conv2d-419           [-1, 88, 14, 14]           2,200
          Conv2d-420           [-1, 88, 14, 14]           7,744
 SeparableConv2d-421           [-1, 88, 14, 14]               0
     BatchNorm2d-422           [-1, 88, 14, 14]             176
BranchSeparablesReduction-423           [-1, 88, 14, 14]               0
            ReLU-424           [-1, 88, 28, 28]               0
       ZeroPad2d-425           [-1, 88, 29, 29]               0
          Conv2d-426           [-1, 88, 15, 15]           4,312
          Conv2d-427           [-1, 88, 15, 15]           7,744
 SeparableConv2d-428           [-1, 88, 15, 15]               0
     BatchNorm2d-429           [-1, 88, 14, 14]             176
            ReLU-430           [-1, 88, 14, 14]               0
          Conv2d-431           [-1, 88, 14, 14]           4,312
          Conv2d-432           [-1, 88, 14, 14]           7,744
 SeparableConv2d-433           [-1, 88, 14, 14]               0
     BatchNorm2d-434           [-1, 88, 14, 14]             176
BranchSeparablesReduction-435           [-1, 88, 14, 14]               0
       ZeroPad2d-436           [-1, 88, 29, 29]               0
       MaxPool2d-437           [-1, 88, 15, 15]               0
      MaxPoolPad-438           [-1, 88, 14, 14]               0
            ReLU-439           [-1, 88, 28, 28]               0
       ZeroPad2d-440           [-1, 88, 29, 29]               0
          Conv2d-441           [-1, 88, 15, 15]           4,312
          Conv2d-442           [-1, 88, 15, 15]           7,744
 SeparableConv2d-443           [-1, 88, 15, 15]               0
     BatchNorm2d-444           [-1, 88, 14, 14]             176
            ReLU-445           [-1, 88, 14, 14]               0
          Conv2d-446           [-1, 88, 14, 14]           4,312
          Conv2d-447           [-1, 88, 14, 14]           7,744
 SeparableConv2d-448           [-1, 88, 14, 14]               0
     BatchNorm2d-449           [-1, 88, 14, 14]             176
BranchSeparablesReduction-450           [-1, 88, 14, 14]               0
       ZeroPad2d-451           [-1, 88, 29, 29]               0
       AvgPool2d-452           [-1, 88, 15, 15]               0
      AvgPoolPad-453           [-1, 88, 14, 14]               0
            ReLU-454           [-1, 88, 28, 28]               0
       ZeroPad2d-455           [-1, 88, 29, 29]               0
          Conv2d-456           [-1, 88, 15, 15]           2,200
          Conv2d-457           [-1, 88, 15, 15]           7,744
 SeparableConv2d-458           [-1, 88, 15, 15]               0
     BatchNorm2d-459           [-1, 88, 14, 14]             176
            ReLU-460           [-1, 88, 14, 14]               0
          Conv2d-461           [-1, 88, 14, 14]           2,200
          Conv2d-462           [-1, 88, 14, 14]           7,744
 SeparableConv2d-463           [-1, 88, 14, 14]               0
     BatchNorm2d-464           [-1, 88, 14, 14]             176
BranchSeparablesReduction-465           [-1, 88, 14, 14]               0
       AvgPool2d-466           [-1, 88, 14, 14]               0
            ReLU-467           [-1, 88, 14, 14]               0
       ZeroPad2d-468           [-1, 88, 15, 15]               0
          Conv2d-469           [-1, 88, 15, 15]             792
          Conv2d-470           [-1, 88, 15, 15]           7,744
 SeparableConv2d-471           [-1, 88, 15, 15]               0
     BatchNorm2d-472           [-1, 88, 14, 14]             176
            ReLU-473           [-1, 88, 14, 14]               0
          Conv2d-474           [-1, 88, 14, 14]             792
          Conv2d-475           [-1, 88, 14, 14]           7,744
 SeparableConv2d-476           [-1, 88, 14, 14]               0
     BatchNorm2d-477           [-1, 88, 14, 14]             176
BranchSeparablesReduction-478           [-1, 88, 14, 14]               0
       ZeroPad2d-479           [-1, 88, 29, 29]               0
       MaxPool2d-480           [-1, 88, 15, 15]               0
      MaxPoolPad-481           [-1, 88, 14, 14]               0
  ReductionCell0-482          [-1, 352, 14, 14]               0
            ReLU-483          [-1, 264, 28, 28]               0
       AvgPool2d-484          [-1, 264, 14, 14]               0
          Conv2d-485           [-1, 44, 14, 14]          11,616
       ZeroPad2d-486          [-1, 264, 29, 29]               0
       AvgPool2d-487          [-1, 264, 14, 14]               0
          Conv2d-488           [-1, 44, 14, 14]          11,616
     BatchNorm2d-489           [-1, 88, 14, 14]             176
            ReLU-490          [-1, 352, 14, 14]               0
          Conv2d-491           [-1, 88, 14, 14]          30,976
     BatchNorm2d-492           [-1, 88, 14, 14]             176
            ReLU-493           [-1, 88, 14, 14]               0
          Conv2d-494           [-1, 88, 14, 14]           2,200
          Conv2d-495           [-1, 88, 14, 14]           7,744
 SeparableConv2d-496           [-1, 88, 14, 14]               0
     BatchNorm2d-497           [-1, 88, 14, 14]             176
            ReLU-498           [-1, 88, 14, 14]               0
          Conv2d-499           [-1, 88, 14, 14]           2,200
          Conv2d-500           [-1, 88, 14, 14]           7,744
 SeparableConv2d-501           [-1, 88, 14, 14]               0
     BatchNorm2d-502           [-1, 88, 14, 14]             176
BranchSeparables-503           [-1, 88, 14, 14]               0
            ReLU-504           [-1, 88, 14, 14]               0
          Conv2d-505           [-1, 88, 14, 14]             792
          Conv2d-506           [-1, 88, 14, 14]           7,744
 SeparableConv2d-507           [-1, 88, 14, 14]               0
     BatchNorm2d-508           [-1, 88, 14, 14]             176
            ReLU-509           [-1, 88, 14, 14]               0
          Conv2d-510           [-1, 88, 14, 14]             792
          Conv2d-511           [-1, 88, 14, 14]           7,744
 SeparableConv2d-512           [-1, 88, 14, 14]               0
     BatchNorm2d-513           [-1, 88, 14, 14]             176
BranchSeparables-514           [-1, 88, 14, 14]               0
            ReLU-515           [-1, 88, 14, 14]               0
          Conv2d-516           [-1, 88, 14, 14]           2,200
          Conv2d-517           [-1, 88, 14, 14]           7,744
 SeparableConv2d-518           [-1, 88, 14, 14]               0
     BatchNorm2d-519           [-1, 88, 14, 14]             176
            ReLU-520           [-1, 88, 14, 14]               0
          Conv2d-521           [-1, 88, 14, 14]           2,200
          Conv2d-522           [-1, 88, 14, 14]           7,744
 SeparableConv2d-523           [-1, 88, 14, 14]               0
     BatchNorm2d-524           [-1, 88, 14, 14]             176
BranchSeparables-525           [-1, 88, 14, 14]               0
            ReLU-526           [-1, 88, 14, 14]               0
          Conv2d-527           [-1, 88, 14, 14]             792
          Conv2d-528           [-1, 88, 14, 14]           7,744
 SeparableConv2d-529           [-1, 88, 14, 14]               0
     BatchNorm2d-530           [-1, 88, 14, 14]             176
            ReLU-531           [-1, 88, 14, 14]               0
          Conv2d-532           [-1, 88, 14, 14]             792
          Conv2d-533           [-1, 88, 14, 14]           7,744
 SeparableConv2d-534           [-1, 88, 14, 14]               0
     BatchNorm2d-535           [-1, 88, 14, 14]             176
BranchSeparables-536           [-1, 88, 14, 14]               0
       AvgPool2d-537           [-1, 88, 14, 14]               0
       AvgPool2d-538           [-1, 88, 14, 14]               0
       AvgPool2d-539           [-1, 88, 14, 14]               0
            ReLU-540           [-1, 88, 14, 14]               0
          Conv2d-541           [-1, 88, 14, 14]             792
          Conv2d-542           [-1, 88, 14, 14]           7,744
 SeparableConv2d-543           [-1, 88, 14, 14]               0
     BatchNorm2d-544           [-1, 88, 14, 14]             176
            ReLU-545           [-1, 88, 14, 14]               0
          Conv2d-546           [-1, 88, 14, 14]             792
          Conv2d-547           [-1, 88, 14, 14]           7,744
 SeparableConv2d-548           [-1, 88, 14, 14]               0
     BatchNorm2d-549           [-1, 88, 14, 14]             176
BranchSeparables-550           [-1, 88, 14, 14]               0
       FirstCell-551          [-1, 528, 14, 14]               0
            ReLU-552          [-1, 352, 14, 14]               0
          Conv2d-553           [-1, 88, 14, 14]          30,976
     BatchNorm2d-554           [-1, 88, 14, 14]             176
            ReLU-555          [-1, 528, 14, 14]               0
          Conv2d-556           [-1, 88, 14, 14]          46,464
     BatchNorm2d-557           [-1, 88, 14, 14]             176
            ReLU-558           [-1, 88, 14, 14]               0
          Conv2d-559           [-1, 88, 14, 14]           2,200
          Conv2d-560           [-1, 88, 14, 14]           7,744
 SeparableConv2d-561           [-1, 88, 14, 14]               0
     BatchNorm2d-562           [-1, 88, 14, 14]             176
            ReLU-563           [-1, 88, 14, 14]               0
          Conv2d-564           [-1, 88, 14, 14]           2,200
          Conv2d-565           [-1, 88, 14, 14]           7,744
 SeparableConv2d-566           [-1, 88, 14, 14]               0
     BatchNorm2d-567           [-1, 88, 14, 14]             176
BranchSeparables-568           [-1, 88, 14, 14]               0
            ReLU-569           [-1, 88, 14, 14]               0
          Conv2d-570           [-1, 88, 14, 14]             792
          Conv2d-571           [-1, 88, 14, 14]           7,744
 SeparableConv2d-572           [-1, 88, 14, 14]               0
     BatchNorm2d-573           [-1, 88, 14, 14]             176
            ReLU-574           [-1, 88, 14, 14]               0
          Conv2d-575           [-1, 88, 14, 14]             792
          Conv2d-576           [-1, 88, 14, 14]           7,744
 SeparableConv2d-577           [-1, 88, 14, 14]               0
     BatchNorm2d-578           [-1, 88, 14, 14]             176
BranchSeparables-579           [-1, 88, 14, 14]               0
            ReLU-580           [-1, 88, 14, 14]               0
          Conv2d-581           [-1, 88, 14, 14]           2,200
          Conv2d-582           [-1, 88, 14, 14]           7,744
 SeparableConv2d-583           [-1, 88, 14, 14]               0
     BatchNorm2d-584           [-1, 88, 14, 14]             176
            ReLU-585           [-1, 88, 14, 14]               0
          Conv2d-586           [-1, 88, 14, 14]           2,200
          Conv2d-587           [-1, 88, 14, 14]           7,744
 SeparableConv2d-588           [-1, 88, 14, 14]               0
     BatchNorm2d-589           [-1, 88, 14, 14]             176
BranchSeparables-590           [-1, 88, 14, 14]               0
            ReLU-591           [-1, 88, 14, 14]               0
          Conv2d-592           [-1, 88, 14, 14]             792
          Conv2d-593           [-1, 88, 14, 14]           7,744
 SeparableConv2d-594           [-1, 88, 14, 14]               0
     BatchNorm2d-595           [-1, 88, 14, 14]             176
            ReLU-596           [-1, 88, 14, 14]               0
          Conv2d-597           [-1, 88, 14, 14]             792
          Conv2d-598           [-1, 88, 14, 14]           7,744
 SeparableConv2d-599           [-1, 88, 14, 14]               0
     BatchNorm2d-600           [-1, 88, 14, 14]             176
BranchSeparables-601           [-1, 88, 14, 14]               0
       AvgPool2d-602           [-1, 88, 14, 14]               0
       AvgPool2d-603           [-1, 88, 14, 14]               0
       AvgPool2d-604           [-1, 88, 14, 14]               0
            ReLU-605           [-1, 88, 14, 14]               0
          Conv2d-606           [-1, 88, 14, 14]             792
          Conv2d-607           [-1, 88, 14, 14]           7,744
 SeparableConv2d-608           [-1, 88, 14, 14]               0
     BatchNorm2d-609           [-1, 88, 14, 14]             176
            ReLU-610           [-1, 88, 14, 14]               0
          Conv2d-611           [-1, 88, 14, 14]             792
          Conv2d-612           [-1, 88, 14, 14]           7,744
 SeparableConv2d-613           [-1, 88, 14, 14]               0
     BatchNorm2d-614           [-1, 88, 14, 14]             176
BranchSeparables-615           [-1, 88, 14, 14]               0
      NormalCell-616          [-1, 528, 14, 14]               0
            ReLU-617          [-1, 528, 14, 14]               0
          Conv2d-618           [-1, 88, 14, 14]          46,464
     BatchNorm2d-619           [-1, 88, 14, 14]             176
            ReLU-620          [-1, 528, 14, 14]               0
          Conv2d-621           [-1, 88, 14, 14]          46,464
     BatchNorm2d-622           [-1, 88, 14, 14]             176
            ReLU-623           [-1, 88, 14, 14]               0
          Conv2d-624           [-1, 88, 14, 14]           2,200
          Conv2d-625           [-1, 88, 14, 14]           7,744
 SeparableConv2d-626           [-1, 88, 14, 14]               0
     BatchNorm2d-627           [-1, 88, 14, 14]             176
            ReLU-628           [-1, 88, 14, 14]               0
          Conv2d-629           [-1, 88, 14, 14]           2,200
          Conv2d-630           [-1, 88, 14, 14]           7,744
 SeparableConv2d-631           [-1, 88, 14, 14]               0
     BatchNorm2d-632           [-1, 88, 14, 14]             176
BranchSeparables-633           [-1, 88, 14, 14]               0
            ReLU-634           [-1, 88, 14, 14]               0
          Conv2d-635           [-1, 88, 14, 14]             792
          Conv2d-636           [-1, 88, 14, 14]           7,744
 SeparableConv2d-637           [-1, 88, 14, 14]               0
     BatchNorm2d-638           [-1, 88, 14, 14]             176
            ReLU-639           [-1, 88, 14, 14]               0
          Conv2d-640           [-1, 88, 14, 14]             792
          Conv2d-641           [-1, 88, 14, 14]           7,744
 SeparableConv2d-642           [-1, 88, 14, 14]               0
     BatchNorm2d-643           [-1, 88, 14, 14]             176
BranchSeparables-644           [-1, 88, 14, 14]               0
            ReLU-645           [-1, 88, 14, 14]               0
          Conv2d-646           [-1, 88, 14, 14]           2,200
          Conv2d-647           [-1, 88, 14, 14]           7,744
 SeparableConv2d-648           [-1, 88, 14, 14]               0
     BatchNorm2d-649           [-1, 88, 14, 14]             176
            ReLU-650           [-1, 88, 14, 14]               0
          Conv2d-651           [-1, 88, 14, 14]           2,200
          Conv2d-652           [-1, 88, 14, 14]           7,744
 SeparableConv2d-653           [-1, 88, 14, 14]               0
     BatchNorm2d-654           [-1, 88, 14, 14]             176
BranchSeparables-655           [-1, 88, 14, 14]               0
            ReLU-656           [-1, 88, 14, 14]               0
          Conv2d-657           [-1, 88, 14, 14]             792
          Conv2d-658           [-1, 88, 14, 14]           7,744
 SeparableConv2d-659           [-1, 88, 14, 14]               0
     BatchNorm2d-660           [-1, 88, 14, 14]             176
            ReLU-661           [-1, 88, 14, 14]               0
          Conv2d-662           [-1, 88, 14, 14]             792
          Conv2d-663           [-1, 88, 14, 14]           7,744
 SeparableConv2d-664           [-1, 88, 14, 14]               0
     BatchNorm2d-665           [-1, 88, 14, 14]             176
BranchSeparables-666           [-1, 88, 14, 14]               0
       AvgPool2d-667           [-1, 88, 14, 14]               0
       AvgPool2d-668           [-1, 88, 14, 14]               0
       AvgPool2d-669           [-1, 88, 14, 14]               0
            ReLU-670           [-1, 88, 14, 14]               0
          Conv2d-671           [-1, 88, 14, 14]             792
          Conv2d-672           [-1, 88, 14, 14]           7,744
 SeparableConv2d-673           [-1, 88, 14, 14]               0
     BatchNorm2d-674           [-1, 88, 14, 14]             176
            ReLU-675           [-1, 88, 14, 14]               0
          Conv2d-676           [-1, 88, 14, 14]             792
          Conv2d-677           [-1, 88, 14, 14]           7,744
 SeparableConv2d-678           [-1, 88, 14, 14]               0
     BatchNorm2d-679           [-1, 88, 14, 14]             176
BranchSeparables-680           [-1, 88, 14, 14]               0
      NormalCell-681          [-1, 528, 14, 14]               0
            ReLU-682          [-1, 528, 14, 14]               0
          Conv2d-683           [-1, 88, 14, 14]          46,464
     BatchNorm2d-684           [-1, 88, 14, 14]             176
            ReLU-685          [-1, 528, 14, 14]               0
          Conv2d-686           [-1, 88, 14, 14]          46,464
     BatchNorm2d-687           [-1, 88, 14, 14]             176
            ReLU-688           [-1, 88, 14, 14]               0
          Conv2d-689           [-1, 88, 14, 14]           2,200
          Conv2d-690           [-1, 88, 14, 14]           7,744
 SeparableConv2d-691           [-1, 88, 14, 14]               0
     BatchNorm2d-692           [-1, 88, 14, 14]             176
            ReLU-693           [-1, 88, 14, 14]               0
          Conv2d-694           [-1, 88, 14, 14]           2,200
          Conv2d-695           [-1, 88, 14, 14]           7,744
 SeparableConv2d-696           [-1, 88, 14, 14]               0
     BatchNorm2d-697           [-1, 88, 14, 14]             176
BranchSeparables-698           [-1, 88, 14, 14]               0
            ReLU-699           [-1, 88, 14, 14]               0
          Conv2d-700           [-1, 88, 14, 14]             792
          Conv2d-701           [-1, 88, 14, 14]           7,744
 SeparableConv2d-702           [-1, 88, 14, 14]               0
     BatchNorm2d-703           [-1, 88, 14, 14]             176
            ReLU-704           [-1, 88, 14, 14]               0
          Conv2d-705           [-1, 88, 14, 14]             792
          Conv2d-706           [-1, 88, 14, 14]           7,744
 SeparableConv2d-707           [-1, 88, 14, 14]               0
     BatchNorm2d-708           [-1, 88, 14, 14]             176
BranchSeparables-709           [-1, 88, 14, 14]               0
            ReLU-710           [-1, 88, 14, 14]               0
          Conv2d-711           [-1, 88, 14, 14]           2,200
          Conv2d-712           [-1, 88, 14, 14]           7,744
 SeparableConv2d-713           [-1, 88, 14, 14]               0
     BatchNorm2d-714           [-1, 88, 14, 14]             176
            ReLU-715           [-1, 88, 14, 14]               0
          Conv2d-716           [-1, 88, 14, 14]           2,200
          Conv2d-717           [-1, 88, 14, 14]           7,744
 SeparableConv2d-718           [-1, 88, 14, 14]               0
     BatchNorm2d-719           [-1, 88, 14, 14]             176
BranchSeparables-720           [-1, 88, 14, 14]               0
            ReLU-721           [-1, 88, 14, 14]               0
          Conv2d-722           [-1, 88, 14, 14]             792
          Conv2d-723           [-1, 88, 14, 14]           7,744
 SeparableConv2d-724           [-1, 88, 14, 14]               0
     BatchNorm2d-725           [-1, 88, 14, 14]             176
            ReLU-726           [-1, 88, 14, 14]               0
          Conv2d-727           [-1, 88, 14, 14]             792
          Conv2d-728           [-1, 88, 14, 14]           7,744
 SeparableConv2d-729           [-1, 88, 14, 14]               0
     BatchNorm2d-730           [-1, 88, 14, 14]             176
BranchSeparables-731           [-1, 88, 14, 14]               0
       AvgPool2d-732           [-1, 88, 14, 14]               0
       AvgPool2d-733           [-1, 88, 14, 14]               0
       AvgPool2d-734           [-1, 88, 14, 14]               0
            ReLU-735           [-1, 88, 14, 14]               0
          Conv2d-736           [-1, 88, 14, 14]             792
          Conv2d-737           [-1, 88, 14, 14]           7,744
 SeparableConv2d-738           [-1, 88, 14, 14]               0
     BatchNorm2d-739           [-1, 88, 14, 14]             176
            ReLU-740           [-1, 88, 14, 14]               0
          Conv2d-741           [-1, 88, 14, 14]             792
          Conv2d-742           [-1, 88, 14, 14]           7,744
 SeparableConv2d-743           [-1, 88, 14, 14]               0
     BatchNorm2d-744           [-1, 88, 14, 14]             176
BranchSeparables-745           [-1, 88, 14, 14]               0
      NormalCell-746          [-1, 528, 14, 14]               0
            ReLU-747          [-1, 528, 14, 14]               0
          Conv2d-748          [-1, 176, 14, 14]          92,928
     BatchNorm2d-749          [-1, 176, 14, 14]             352
            ReLU-750          [-1, 528, 14, 14]               0
          Conv2d-751          [-1, 176, 14, 14]          92,928
     BatchNorm2d-752          [-1, 176, 14, 14]             352
            ReLU-753          [-1, 176, 14, 14]               0
          Conv2d-754            [-1, 176, 8, 8]           4,400
          Conv2d-755            [-1, 176, 8, 8]          30,976
 SeparableConv2d-756            [-1, 176, 8, 8]               0
     BatchNorm2d-757            [-1, 176, 7, 7]             352
            ReLU-758            [-1, 176, 7, 7]               0
          Conv2d-759            [-1, 176, 7, 7]           4,400
          Conv2d-760            [-1, 176, 7, 7]          30,976
 SeparableConv2d-761            [-1, 176, 7, 7]               0
     BatchNorm2d-762            [-1, 176, 7, 7]             352
BranchSeparables-763            [-1, 176, 7, 7]               0
            ReLU-764          [-1, 176, 14, 14]               0
          Conv2d-765            [-1, 176, 8, 8]           8,624
          Conv2d-766            [-1, 176, 8, 8]          30,976
 SeparableConv2d-767            [-1, 176, 8, 8]               0
     BatchNorm2d-768            [-1, 176, 7, 7]             352
            ReLU-769            [-1, 176, 7, 7]               0
          Conv2d-770            [-1, 176, 7, 7]           8,624
          Conv2d-771            [-1, 176, 7, 7]          30,976
 SeparableConv2d-772            [-1, 176, 7, 7]               0
     BatchNorm2d-773            [-1, 176, 7, 7]             352
BranchSeparables-774            [-1, 176, 7, 7]               0
       ZeroPad2d-775          [-1, 176, 15, 15]               0
       MaxPool2d-776            [-1, 176, 8, 8]               0
      MaxPoolPad-777            [-1, 176, 7, 7]               0
            ReLU-778          [-1, 176, 14, 14]               0
          Conv2d-779            [-1, 176, 8, 8]           8,624
          Conv2d-780            [-1, 176, 8, 8]          30,976
 SeparableConv2d-781            [-1, 176, 8, 8]               0
     BatchNorm2d-782            [-1, 176, 7, 7]             352
            ReLU-783            [-1, 176, 7, 7]               0
          Conv2d-784            [-1, 176, 7, 7]           8,624
          Conv2d-785            [-1, 176, 7, 7]          30,976
 SeparableConv2d-786            [-1, 176, 7, 7]               0
     BatchNorm2d-787            [-1, 176, 7, 7]             352
BranchSeparables-788            [-1, 176, 7, 7]               0
       ZeroPad2d-789          [-1, 176, 15, 15]               0
       AvgPool2d-790            [-1, 176, 8, 8]               0
      AvgPoolPad-791            [-1, 176, 7, 7]               0
            ReLU-792          [-1, 176, 14, 14]               0
          Conv2d-793            [-1, 176, 8, 8]           4,400
          Conv2d-794            [-1, 176, 8, 8]          30,976
 SeparableConv2d-795            [-1, 176, 8, 8]               0
     BatchNorm2d-796            [-1, 176, 7, 7]             352
            ReLU-797            [-1, 176, 7, 7]               0
          Conv2d-798            [-1, 176, 7, 7]           4,400
          Conv2d-799            [-1, 176, 7, 7]          30,976
 SeparableConv2d-800            [-1, 176, 7, 7]               0
     BatchNorm2d-801            [-1, 176, 7, 7]             352
BranchSeparables-802            [-1, 176, 7, 7]               0
       AvgPool2d-803            [-1, 176, 7, 7]               0
            ReLU-804            [-1, 176, 7, 7]               0
          Conv2d-805            [-1, 176, 8, 8]           1,584
          Conv2d-806            [-1, 176, 8, 8]          30,976
 SeparableConv2d-807            [-1, 176, 8, 8]               0
     BatchNorm2d-808            [-1, 176, 7, 7]             352
            ReLU-809            [-1, 176, 7, 7]               0
          Conv2d-810            [-1, 176, 7, 7]           1,584
          Conv2d-811            [-1, 176, 7, 7]          30,976
 SeparableConv2d-812            [-1, 176, 7, 7]               0
     BatchNorm2d-813            [-1, 176, 7, 7]             352
BranchSeparables-814            [-1, 176, 7, 7]               0
       ZeroPad2d-815          [-1, 176, 15, 15]               0
       MaxPool2d-816            [-1, 176, 8, 8]               0
      MaxPoolPad-817            [-1, 176, 7, 7]               0
  ReductionCell1-818            [-1, 704, 7, 7]               0
            ReLU-819          [-1, 528, 14, 14]               0
       AvgPool2d-820            [-1, 528, 7, 7]               0
          Conv2d-821             [-1, 88, 7, 7]          46,464
       ZeroPad2d-822          [-1, 528, 15, 15]               0
       AvgPool2d-823            [-1, 528, 7, 7]               0
          Conv2d-824             [-1, 88, 7, 7]          46,464
     BatchNorm2d-825            [-1, 176, 7, 7]             352
            ReLU-826            [-1, 704, 7, 7]               0
          Conv2d-827            [-1, 176, 7, 7]         123,904
     BatchNorm2d-828            [-1, 176, 7, 7]             352
            ReLU-829            [-1, 176, 7, 7]               0
          Conv2d-830            [-1, 176, 7, 7]           4,400
          Conv2d-831            [-1, 176, 7, 7]          30,976
 SeparableConv2d-832            [-1, 176, 7, 7]               0
     BatchNorm2d-833            [-1, 176, 7, 7]             352
            ReLU-834            [-1, 176, 7, 7]               0
          Conv2d-835            [-1, 176, 7, 7]           4,400
          Conv2d-836            [-1, 176, 7, 7]          30,976
 SeparableConv2d-837            [-1, 176, 7, 7]               0
     BatchNorm2d-838            [-1, 176, 7, 7]             352
BranchSeparables-839            [-1, 176, 7, 7]               0
            ReLU-840            [-1, 176, 7, 7]               0
          Conv2d-841            [-1, 176, 7, 7]           1,584
          Conv2d-842            [-1, 176, 7, 7]          30,976
 SeparableConv2d-843            [-1, 176, 7, 7]               0
     BatchNorm2d-844            [-1, 176, 7, 7]             352
            ReLU-845            [-1, 176, 7, 7]               0
          Conv2d-846            [-1, 176, 7, 7]           1,584
          Conv2d-847            [-1, 176, 7, 7]          30,976
 SeparableConv2d-848            [-1, 176, 7, 7]               0
     BatchNorm2d-849            [-1, 176, 7, 7]             352
BranchSeparables-850            [-1, 176, 7, 7]               0
            ReLU-851            [-1, 176, 7, 7]               0
          Conv2d-852            [-1, 176, 7, 7]           4,400
          Conv2d-853            [-1, 176, 7, 7]          30,976
 SeparableConv2d-854            [-1, 176, 7, 7]               0
     BatchNorm2d-855            [-1, 176, 7, 7]             352
            ReLU-856            [-1, 176, 7, 7]               0
          Conv2d-857            [-1, 176, 7, 7]           4,400
          Conv2d-858            [-1, 176, 7, 7]          30,976
 SeparableConv2d-859            [-1, 176, 7, 7]               0
     BatchNorm2d-860            [-1, 176, 7, 7]             352
BranchSeparables-861            [-1, 176, 7, 7]               0
            ReLU-862            [-1, 176, 7, 7]               0
          Conv2d-863            [-1, 176, 7, 7]           1,584
          Conv2d-864            [-1, 176, 7, 7]          30,976
 SeparableConv2d-865            [-1, 176, 7, 7]               0
     BatchNorm2d-866            [-1, 176, 7, 7]             352
            ReLU-867            [-1, 176, 7, 7]               0
          Conv2d-868            [-1, 176, 7, 7]           1,584
          Conv2d-869            [-1, 176, 7, 7]          30,976
 SeparableConv2d-870            [-1, 176, 7, 7]               0
     BatchNorm2d-871            [-1, 176, 7, 7]             352
BranchSeparables-872            [-1, 176, 7, 7]               0
       AvgPool2d-873            [-1, 176, 7, 7]               0
       AvgPool2d-874            [-1, 176, 7, 7]               0
       AvgPool2d-875            [-1, 176, 7, 7]               0
            ReLU-876            [-1, 176, 7, 7]               0
          Conv2d-877            [-1, 176, 7, 7]           1,584
          Conv2d-878            [-1, 176, 7, 7]          30,976
 SeparableConv2d-879            [-1, 176, 7, 7]               0
     BatchNorm2d-880            [-1, 176, 7, 7]             352
            ReLU-881            [-1, 176, 7, 7]               0
          Conv2d-882            [-1, 176, 7, 7]           1,584
          Conv2d-883            [-1, 176, 7, 7]          30,976
 SeparableConv2d-884            [-1, 176, 7, 7]               0
     BatchNorm2d-885            [-1, 176, 7, 7]             352
BranchSeparables-886            [-1, 176, 7, 7]               0
       FirstCell-887           [-1, 1056, 7, 7]               0
            ReLU-888            [-1, 704, 7, 7]               0
          Conv2d-889            [-1, 176, 7, 7]         123,904
     BatchNorm2d-890            [-1, 176, 7, 7]             352
            ReLU-891           [-1, 1056, 7, 7]               0
          Conv2d-892            [-1, 176, 7, 7]         185,856
     BatchNorm2d-893            [-1, 176, 7, 7]             352
            ReLU-894            [-1, 176, 7, 7]               0
          Conv2d-895            [-1, 176, 7, 7]           4,400
          Conv2d-896            [-1, 176, 7, 7]          30,976
 SeparableConv2d-897            [-1, 176, 7, 7]               0
     BatchNorm2d-898            [-1, 176, 7, 7]             352
            ReLU-899            [-1, 176, 7, 7]               0
          Conv2d-900            [-1, 176, 7, 7]           4,400
          Conv2d-901            [-1, 176, 7, 7]          30,976
 SeparableConv2d-902            [-1, 176, 7, 7]               0
     BatchNorm2d-903            [-1, 176, 7, 7]             352
BranchSeparables-904            [-1, 176, 7, 7]               0
            ReLU-905            [-1, 176, 7, 7]               0
          Conv2d-906            [-1, 176, 7, 7]           1,584
          Conv2d-907            [-1, 176, 7, 7]          30,976
 SeparableConv2d-908            [-1, 176, 7, 7]               0
     BatchNorm2d-909            [-1, 176, 7, 7]             352
            ReLU-910            [-1, 176, 7, 7]               0
          Conv2d-911            [-1, 176, 7, 7]           1,584
          Conv2d-912            [-1, 176, 7, 7]          30,976
 SeparableConv2d-913            [-1, 176, 7, 7]               0
     BatchNorm2d-914            [-1, 176, 7, 7]             352
BranchSeparables-915            [-1, 176, 7, 7]               0
            ReLU-916            [-1, 176, 7, 7]               0
          Conv2d-917            [-1, 176, 7, 7]           4,400
          Conv2d-918            [-1, 176, 7, 7]          30,976
 SeparableConv2d-919            [-1, 176, 7, 7]               0
     BatchNorm2d-920            [-1, 176, 7, 7]             352
            ReLU-921            [-1, 176, 7, 7]               0
          Conv2d-922            [-1, 176, 7, 7]           4,400
          Conv2d-923            [-1, 176, 7, 7]          30,976
 SeparableConv2d-924            [-1, 176, 7, 7]               0
     BatchNorm2d-925            [-1, 176, 7, 7]             352
BranchSeparables-926            [-1, 176, 7, 7]               0
            ReLU-927            [-1, 176, 7, 7]               0
          Conv2d-928            [-1, 176, 7, 7]           1,584
          Conv2d-929            [-1, 176, 7, 7]          30,976
 SeparableConv2d-930            [-1, 176, 7, 7]               0
     BatchNorm2d-931            [-1, 176, 7, 7]             352
            ReLU-932            [-1, 176, 7, 7]               0
          Conv2d-933            [-1, 176, 7, 7]           1,584
          Conv2d-934            [-1, 176, 7, 7]          30,976
 SeparableConv2d-935            [-1, 176, 7, 7]               0
     BatchNorm2d-936            [-1, 176, 7, 7]             352
BranchSeparables-937            [-1, 176, 7, 7]               0
       AvgPool2d-938            [-1, 176, 7, 7]               0
       AvgPool2d-939            [-1, 176, 7, 7]               0
       AvgPool2d-940            [-1, 176, 7, 7]               0
            ReLU-941            [-1, 176, 7, 7]               0
          Conv2d-942            [-1, 176, 7, 7]           1,584
          Conv2d-943            [-1, 176, 7, 7]          30,976
 SeparableConv2d-944            [-1, 176, 7, 7]               0
     BatchNorm2d-945            [-1, 176, 7, 7]             352
            ReLU-946            [-1, 176, 7, 7]               0
          Conv2d-947            [-1, 176, 7, 7]           1,584
          Conv2d-948            [-1, 176, 7, 7]          30,976
 SeparableConv2d-949            [-1, 176, 7, 7]               0
     BatchNorm2d-950            [-1, 176, 7, 7]             352
BranchSeparables-951            [-1, 176, 7, 7]               0
      NormalCell-952           [-1, 1056, 7, 7]               0
            ReLU-953           [-1, 1056, 7, 7]               0
          Conv2d-954            [-1, 176, 7, 7]         185,856
     BatchNorm2d-955            [-1, 176, 7, 7]             352
            ReLU-956           [-1, 1056, 7, 7]               0
          Conv2d-957            [-1, 176, 7, 7]         185,856
     BatchNorm2d-958            [-1, 176, 7, 7]             352
            ReLU-959            [-1, 176, 7, 7]               0
          Conv2d-960            [-1, 176, 7, 7]           4,400
          Conv2d-961            [-1, 176, 7, 7]          30,976
 SeparableConv2d-962            [-1, 176, 7, 7]               0
     BatchNorm2d-963            [-1, 176, 7, 7]             352
            ReLU-964            [-1, 176, 7, 7]               0
          Conv2d-965            [-1, 176, 7, 7]           4,400
          Conv2d-966            [-1, 176, 7, 7]          30,976
 SeparableConv2d-967            [-1, 176, 7, 7]               0
     BatchNorm2d-968            [-1, 176, 7, 7]             352
BranchSeparables-969            [-1, 176, 7, 7]               0
            ReLU-970            [-1, 176, 7, 7]               0
          Conv2d-971            [-1, 176, 7, 7]           1,584
          Conv2d-972            [-1, 176, 7, 7]          30,976
 SeparableConv2d-973            [-1, 176, 7, 7]               0
     BatchNorm2d-974            [-1, 176, 7, 7]             352
            ReLU-975            [-1, 176, 7, 7]               0
          Conv2d-976            [-1, 176, 7, 7]           1,584
          Conv2d-977            [-1, 176, 7, 7]          30,976
 SeparableConv2d-978            [-1, 176, 7, 7]               0
     BatchNorm2d-979            [-1, 176, 7, 7]             352
BranchSeparables-980            [-1, 176, 7, 7]               0
            ReLU-981            [-1, 176, 7, 7]               0
          Conv2d-982            [-1, 176, 7, 7]           4,400
          Conv2d-983            [-1, 176, 7, 7]          30,976
 SeparableConv2d-984            [-1, 176, 7, 7]               0
     BatchNorm2d-985            [-1, 176, 7, 7]             352
            ReLU-986            [-1, 176, 7, 7]               0
          Conv2d-987            [-1, 176, 7, 7]           4,400
          Conv2d-988            [-1, 176, 7, 7]          30,976
 SeparableConv2d-989            [-1, 176, 7, 7]               0
     BatchNorm2d-990            [-1, 176, 7, 7]             352
BranchSeparables-991            [-1, 176, 7, 7]               0
            ReLU-992            [-1, 176, 7, 7]               0
          Conv2d-993            [-1, 176, 7, 7]           1,584
          Conv2d-994            [-1, 176, 7, 7]          30,976
 SeparableConv2d-995            [-1, 176, 7, 7]               0
     BatchNorm2d-996            [-1, 176, 7, 7]             352
            ReLU-997            [-1, 176, 7, 7]               0
          Conv2d-998            [-1, 176, 7, 7]           1,584
          Conv2d-999            [-1, 176, 7, 7]          30,976
SeparableConv2d-1000            [-1, 176, 7, 7]               0
    BatchNorm2d-1001            [-1, 176, 7, 7]             352
BranchSeparables-1002            [-1, 176, 7, 7]               0
      AvgPool2d-1003            [-1, 176, 7, 7]               0
      AvgPool2d-1004            [-1, 176, 7, 7]               0
      AvgPool2d-1005            [-1, 176, 7, 7]               0
           ReLU-1006            [-1, 176, 7, 7]               0
         Conv2d-1007            [-1, 176, 7, 7]           1,584
         Conv2d-1008            [-1, 176, 7, 7]          30,976
SeparableConv2d-1009            [-1, 176, 7, 7]               0
    BatchNorm2d-1010            [-1, 176, 7, 7]             352
           ReLU-1011            [-1, 176, 7, 7]               0
         Conv2d-1012            [-1, 176, 7, 7]           1,584
         Conv2d-1013            [-1, 176, 7, 7]          30,976
SeparableConv2d-1014            [-1, 176, 7, 7]               0
    BatchNorm2d-1015            [-1, 176, 7, 7]             352
BranchSeparables-1016            [-1, 176, 7, 7]               0
     NormalCell-1017           [-1, 1056, 7, 7]               0
           ReLU-1018           [-1, 1056, 7, 7]               0
         Conv2d-1019            [-1, 176, 7, 7]         185,856
    BatchNorm2d-1020            [-1, 176, 7, 7]             352
           ReLU-1021           [-1, 1056, 7, 7]               0
         Conv2d-1022            [-1, 176, 7, 7]         185,856
    BatchNorm2d-1023            [-1, 176, 7, 7]             352
           ReLU-1024            [-1, 176, 7, 7]               0
         Conv2d-1025            [-1, 176, 7, 7]           4,400
         Conv2d-1026            [-1, 176, 7, 7]          30,976
SeparableConv2d-1027            [-1, 176, 7, 7]               0
    BatchNorm2d-1028            [-1, 176, 7, 7]             352
           ReLU-1029            [-1, 176, 7, 7]               0
         Conv2d-1030            [-1, 176, 7, 7]           4,400
         Conv2d-1031            [-1, 176, 7, 7]          30,976
SeparableConv2d-1032            [-1, 176, 7, 7]               0
    BatchNorm2d-1033            [-1, 176, 7, 7]             352
BranchSeparables-1034            [-1, 176, 7, 7]               0
           ReLU-1035            [-1, 176, 7, 7]               0
         Conv2d-1036            [-1, 176, 7, 7]           1,584
         Conv2d-1037            [-1, 176, 7, 7]          30,976
SeparableConv2d-1038            [-1, 176, 7, 7]               0
    BatchNorm2d-1039            [-1, 176, 7, 7]             352
           ReLU-1040            [-1, 176, 7, 7]               0
         Conv2d-1041            [-1, 176, 7, 7]           1,584
         Conv2d-1042            [-1, 176, 7, 7]          30,976
SeparableConv2d-1043            [-1, 176, 7, 7]               0
    BatchNorm2d-1044            [-1, 176, 7, 7]             352
BranchSeparables-1045            [-1, 176, 7, 7]               0
           ReLU-1046            [-1, 176, 7, 7]               0
         Conv2d-1047            [-1, 176, 7, 7]           4,400
         Conv2d-1048            [-1, 176, 7, 7]          30,976
SeparableConv2d-1049            [-1, 176, 7, 7]               0
    BatchNorm2d-1050            [-1, 176, 7, 7]             352
           ReLU-1051            [-1, 176, 7, 7]               0
         Conv2d-1052            [-1, 176, 7, 7]           4,400
         Conv2d-1053            [-1, 176, 7, 7]          30,976
SeparableConv2d-1054            [-1, 176, 7, 7]               0
    BatchNorm2d-1055            [-1, 176, 7, 7]             352
BranchSeparables-1056            [-1, 176, 7, 7]               0
           ReLU-1057            [-1, 176, 7, 7]               0
         Conv2d-1058            [-1, 176, 7, 7]           1,584
         Conv2d-1059            [-1, 176, 7, 7]          30,976
SeparableConv2d-1060            [-1, 176, 7, 7]               0
    BatchNorm2d-1061            [-1, 176, 7, 7]             352
           ReLU-1062            [-1, 176, 7, 7]               0
         Conv2d-1063            [-1, 176, 7, 7]           1,584
         Conv2d-1064            [-1, 176, 7, 7]          30,976
SeparableConv2d-1065            [-1, 176, 7, 7]               0
    BatchNorm2d-1066            [-1, 176, 7, 7]             352
BranchSeparables-1067            [-1, 176, 7, 7]               0
      AvgPool2d-1068            [-1, 176, 7, 7]               0
      AvgPool2d-1069            [-1, 176, 7, 7]               0
      AvgPool2d-1070            [-1, 176, 7, 7]               0
           ReLU-1071            [-1, 176, 7, 7]               0
         Conv2d-1072            [-1, 176, 7, 7]           1,584
         Conv2d-1073            [-1, 176, 7, 7]          30,976
SeparableConv2d-1074            [-1, 176, 7, 7]               0
    BatchNorm2d-1075            [-1, 176, 7, 7]             352
           ReLU-1076            [-1, 176, 7, 7]               0
         Conv2d-1077            [-1, 176, 7, 7]           1,584
         Conv2d-1078            [-1, 176, 7, 7]          30,976
SeparableConv2d-1079            [-1, 176, 7, 7]               0
    BatchNorm2d-1080            [-1, 176, 7, 7]             352
BranchSeparables-1081            [-1, 176, 7, 7]               0
     NormalCell-1082           [-1, 1056, 7, 7]               0
           ReLU-1083           [-1, 1056, 7, 7]               0
      AvgPool2d-1084           [-1, 1056, 1, 1]               0
        Dropout-1085                 [-1, 1056]               0
         Linear-1086                 [-1, 1000]       1,057,000
================================================================
Total params: 5,289,978
Trainable params: 5,289,978
Non-trainable params: 0
----------------------------------------------------------------
Input size (MB): 0.57
Forward/backward pass size (MB): 241.00
Params size (MB): 20.18
Estimated Total Size (MB): 261.75
----------------------------------------------------------------



========================= MODEL REPORT ==========================
…
