…
CUDA devices name: GeForce GTX 1080
=================================================================


Origin Width: 529, Height: 961
Scale Factor: 1.0, Output Stride: 16
Targer Width: 529, Height: 961



Checkpoint to load: /home/hiep/pytorch-vision/utils/../models/_models/pytorch/mobilenetv1_101_features.pth

========================= MODEL SUMMARY =========================
----------------------------------------------------------------
        Layer (type)               Output Shape         Param #
================================================================
            Conv2d-1         [-1, 32, 265, 481]             896
         InputConv-2         [-1, 32, 265, 481]               0
            Conv2d-3         [-1, 32, 265, 481]             320
            Conv2d-4         [-1, 64, 265, 481]           2,112
     SeperableConv-5         [-1, 64, 265, 481]               0
            Conv2d-6         [-1, 64, 133, 241]             640
            Conv2d-7        [-1, 128, 133, 241]           8,320
     SeperableConv-8        [-1, 128, 133, 241]               0
            Conv2d-9        [-1, 128, 133, 241]           1,280
           Conv2d-10        [-1, 128, 133, 241]          16,512
    SeperableConv-11        [-1, 128, 133, 241]               0
           Conv2d-12         [-1, 128, 67, 121]           1,280
           Conv2d-13         [-1, 256, 67, 121]          33,024
    SeperableConv-14         [-1, 256, 67, 121]               0
           Conv2d-15         [-1, 256, 67, 121]           2,560
           Conv2d-16         [-1, 256, 67, 121]          65,792
    SeperableConv-17         [-1, 256, 67, 121]               0
           Conv2d-18          [-1, 256, 34, 61]           2,560
           Conv2d-19          [-1, 512, 34, 61]         131,584
    SeperableConv-20          [-1, 512, 34, 61]               0
           Conv2d-21          [-1, 512, 34, 61]           5,120
           Conv2d-22          [-1, 512, 34, 61]         262,656
    SeperableConv-23          [-1, 512, 34, 61]               0
           Conv2d-24          [-1, 512, 34, 61]           5,120
           Conv2d-25          [-1, 512, 34, 61]         262,656
    SeperableConv-26          [-1, 512, 34, 61]               0
           Conv2d-27          [-1, 512, 34, 61]           5,120
           Conv2d-28          [-1, 512, 34, 61]         262,656
    SeperableConv-29          [-1, 512, 34, 61]               0
           Conv2d-30          [-1, 512, 34, 61]           5,120
           Conv2d-31          [-1, 512, 34, 61]         262,656
    SeperableConv-32          [-1, 512, 34, 61]               0
           Conv2d-33          [-1, 512, 34, 61]           5,120
           Conv2d-34          [-1, 512, 34, 61]         262,656
    SeperableConv-35          [-1, 512, 34, 61]               0
           Conv2d-36           [-1, 12, 34, 61]          55,308
           Conv2d-37           [-1, 24, 34, 61]         110,616
           Conv2d-38          [-1, 512, 34, 61]           5,120
           Conv2d-39         [-1, 1024, 34, 61]         525,312
    SeperableConv-40         [-1, 1024, 34, 61]               0
           Conv2d-41         [-1, 1024, 34, 61]          10,240
           Conv2d-42         [-1, 1024, 34, 61]       1,049,600
    SeperableConv-43         [-1, 1024, 34, 61]               0
           Conv2d-44           [-1, 12, 34, 61]         110,604
           Conv2d-45           [-1, 24, 34, 61]         221,208
           Conv2d-46          [-1, 256, 34, 61]         262,400
             ReLU-47          [-1, 256, 34, 61]               0
           Conv2d-48          [-1, 512, 17, 31]       1,180,160
             ReLU-49          [-1, 512, 17, 31]               0
           Conv2d-50           [-1, 12, 17, 31]          55,308
           Conv2d-51           [-1, 24, 17, 31]         110,616
           Conv2d-52          [-1, 128, 17, 31]          65,664
             ReLU-53          [-1, 128, 17, 31]               0
           Conv2d-54           [-1, 256, 9, 16]         295,168
             ReLU-55           [-1, 256, 9, 16]               0
           Conv2d-56            [-1, 12, 9, 16]          27,660
           Conv2d-57            [-1, 24, 9, 16]          55,320
           Conv2d-58           [-1, 128, 9, 16]          32,896
             ReLU-59           [-1, 128, 9, 16]               0
           Conv2d-60            [-1, 256, 5, 8]         295,168
             ReLU-61            [-1, 256, 5, 8]               0
           Conv2d-62             [-1, 12, 5, 8]          27,660
           Conv2d-63             [-1, 24, 5, 8]          55,320
           Conv2d-64            [-1, 128, 5, 8]          32,896
             ReLU-65            [-1, 128, 5, 8]               0
           Conv2d-66            [-1, 256, 3, 4]         295,168
             ReLU-67            [-1, 256, 3, 4]               0
           Conv2d-68             [-1, 12, 3, 4]          27,660
           Conv2d-69             [-1, 24, 3, 4]          55,320
================================================================
Total params: 6,568,152
Trainable params: 6,568,152
Non-trainable params: 0
----------------------------------------------------------------
Input size (MB): 5.82
Forward/backward pass size (MB): 723.69
Params size (MB): 25.06
Estimated Total Size (MB): 754.56
----------------------------------------------------------------



========================= MODEL REPORT ==========================
…
