…
================= Micronet Deep Learning Vision =================
Version: 0.2
Author: Luong Chan Hiep
Email: hiep.lchan@gmail.com
-----------------------------------------------
Working on GPU
CUDA devices count: 1
CUDA devices name: GeForce GTX 1080
=================================================================



========================= MODEL SUMMARY =========================
----------------------------------------------------------------
        Layer (type)               Output Shape         Param #
================================================================
            Conv2d-1         [-1, 32, 112, 112]             896
         InputConv-2         [-1, 32, 112, 112]               0
            Conv2d-3         [-1, 32, 112, 112]             320
            Conv2d-4         [-1, 64, 112, 112]           2,112
     SeperableConv-5         [-1, 64, 112, 112]               0
            Conv2d-6           [-1, 64, 56, 56]             640
            Conv2d-7          [-1, 128, 56, 56]           8,320
     SeperableConv-8          [-1, 128, 56, 56]               0
            Conv2d-9          [-1, 128, 56, 56]           1,280
           Conv2d-10          [-1, 128, 56, 56]          16,512
    SeperableConv-11          [-1, 128, 56, 56]               0
           Conv2d-12          [-1, 128, 28, 28]           1,280
           Conv2d-13          [-1, 256, 28, 28]          33,024
    SeperableConv-14          [-1, 256, 28, 28]               0
           Conv2d-15          [-1, 256, 28, 28]           2,560
           Conv2d-16          [-1, 256, 28, 28]          65,792
    SeperableConv-17          [-1, 256, 28, 28]               0
           Conv2d-18          [-1, 256, 14, 14]           2,560
           Conv2d-19          [-1, 512, 14, 14]         131,584
    SeperableConv-20          [-1, 512, 14, 14]               0
           Conv2d-21          [-1, 512, 14, 14]           5,120
           Conv2d-22          [-1, 512, 14, 14]         262,656
    SeperableConv-23          [-1, 512, 14, 14]               0
           Conv2d-24          [-1, 512, 14, 14]           5,120
           Conv2d-25          [-1, 512, 14, 14]         262,656
    SeperableConv-26          [-1, 512, 14, 14]               0
           Conv2d-27          [-1, 512, 14, 14]           5,120
           Conv2d-28          [-1, 512, 14, 14]         262,656
    SeperableConv-29          [-1, 512, 14, 14]               0
           Conv2d-30          [-1, 512, 14, 14]           5,120
           Conv2d-31          [-1, 512, 14, 14]         262,656
    SeperableConv-32          [-1, 512, 14, 14]               0
           Conv2d-33          [-1, 512, 14, 14]           5,120
           Conv2d-34          [-1, 512, 14, 14]         262,656
    SeperableConv-35          [-1, 512, 14, 14]               0
           Conv2d-36          [-1, 512, 14, 14]           5,120
           Conv2d-37         [-1, 1024, 14, 14]         525,312
    SeperableConv-38         [-1, 1024, 14, 14]               0
           Conv2d-39         [-1, 1024, 14, 14]          10,240
           Conv2d-40         [-1, 1024, 14, 14]       1,049,600
    SeperableConv-41         [-1, 1024, 14, 14]               0
           Conv2d-42           [-1, 17, 14, 14]          17,425
           Conv2d-43           [-1, 34, 14, 14]          34,850
           Conv2d-44           [-1, 32, 14, 14]          32,800
           Conv2d-45           [-1, 32, 14, 14]          32,800
================================================================
Total params: 3,313,907
Trainable params: 3,313,907
Non-trainable params: 0
----------------------------------------------------------------
Input size (MB): 0.57
Forward/backward pass size (MB): 68.70
Params size (MB): 12.64
Estimated Total Size (MB): 81.91
----------------------------------------------------------------



========================= MODEL REPORT ==========================
…
