…
================= Micronet Deep Learning Vision =================
Version: 0.2
Author: Luong Chan Hiep
Company: ARI Technology
Email: hiep.lchan@gmail.com
-----------------------------------------------
Working on GPU
CUDA devices count: 1
CUDA devices name: GeForce GTX 1080
=================================================================



========================= MODEL SUMMARY =========================
----------------------------------------------------------------
        Layer (type)               Output Shape         Param #
================================================================
            Conv2d-1         [-1, 32, 265, 481]             896
         InputConv-2         [-1, 32, 265, 481]               0
            Conv2d-3         [-1, 32, 265, 481]             320
            Conv2d-4         [-1, 64, 265, 481]           2,112
     SeperableConv-5         [-1, 64, 265, 481]               0
            Conv2d-6         [-1, 64, 133, 241]             640
            Conv2d-7        [-1, 128, 133, 241]           8,320
     SeperableConv-8        [-1, 128, 133, 241]               0
            Conv2d-9        [-1, 128, 133, 241]           1,280
           Conv2d-10        [-1, 128, 133, 241]          16,512
    SeperableConv-11        [-1, 128, 133, 241]               0
           Conv2d-12         [-1, 128, 67, 121]           1,280
           Conv2d-13         [-1, 256, 67, 121]          33,024
    SeperableConv-14         [-1, 256, 67, 121]               0
           Conv2d-15         [-1, 256, 67, 121]           2,560
           Conv2d-16         [-1, 256, 67, 121]          65,792
    SeperableConv-17         [-1, 256, 67, 121]               0
           Conv2d-18          [-1, 256, 34, 61]           2,560
           Conv2d-19          [-1, 512, 34, 61]         131,584
    SeperableConv-20          [-1, 512, 34, 61]               0
           Conv2d-21          [-1, 512, 34, 61]           5,120
           Conv2d-22          [-1, 512, 34, 61]         262,656
    SeperableConv-23          [-1, 512, 34, 61]               0
           Conv2d-24          [-1, 512, 34, 61]           5,120
           Conv2d-25          [-1, 512, 34, 61]         262,656
    SeperableConv-26          [-1, 512, 34, 61]               0
           Conv2d-27          [-1, 512, 34, 61]           5,120
           Conv2d-28          [-1, 512, 34, 61]         262,656
    SeperableConv-29          [-1, 512, 34, 61]               0
           Conv2d-30          [-1, 512, 34, 61]           5,120
           Conv2d-31          [-1, 512, 34, 61]         262,656
    SeperableConv-32          [-1, 512, 34, 61]               0
           Conv2d-33          [-1, 512, 34, 61]           5,120
           Conv2d-34          [-1, 512, 34, 61]         262,656
    SeperableConv-35          [-1, 512, 34, 61]               0
           Conv2d-36          [-1, 512, 34, 61]           5,120
           Conv2d-37         [-1, 1024, 34, 61]         525,312
    SeperableConv-38         [-1, 1024, 34, 61]               0
           Conv2d-39         [-1, 1024, 34, 61]          10,240
           Conv2d-40         [-1, 1024, 34, 61]       1,049,600
    SeperableConv-41         [-1, 1024, 34, 61]               0
================================================================
Total params: 3,196,032
Trainable params: 3,196,032
Non-trainable params: 0
----------------------------------------------------------------
Input size (MB): 5.82
Forward/backward pass size (MB): 707.98
Params size (MB): 12.19
Estimated Total Size (MB): 725.99
----------------------------------------------------------------



========================= MODEL REPORT ==========================
…
