…
Email: hiep.lchan@gmail.com
=================================================================




========================== Pytorch Info =========================
Working on GPU
CUDA devices count: 1
CUDA devices name: GeForce GTX 1080
=================================================================


------------
========================= MODEL SUMMARY =========================
----------------------------------------------------------------
        Layer (type)               Output Shape         Param #
================================================================
            Conv2d-1         [-1, 16, 265, 481]             448
         InputConv-2         [-1, 16, 265, 481]               0
            Conv2d-3         [-1, 16, 265, 481]             160
            Conv2d-4         [-1, 32, 265, 481]             544
     SeperableConv-5         [-1, 32, 265, 481]               0
            Conv2d-6         [-1, 32, 133, 241]             320
            Conv2d-7         [-1, 64, 133, 241]           2,112
     SeperableConv-8         [-1, 64, 133, 241]               0
            Conv2d-9         [-1, 64, 133, 241]             640
           Conv2d-10         [-1, 64, 133, 241]           4,160
    SeperableConv-11         [-1, 64, 133, 241]               0
           Conv2d-12          [-1, 64, 67, 121]             640
           Conv2d-13         [-1, 128, 67, 121]           8,320
    SeperableConv-14         [-1, 128, 67, 121]               0
           Conv2d-15         [-1, 128, 67, 121]           1,280
           Conv2d-16         [-1, 128, 67, 121]          16,512
    SeperableConv-17         [-1, 128, 67, 121]               0
           Conv2d-18          [-1, 128, 34, 61]           1,280
           Conv2d-19          [-1, 256, 34, 61]          33,024
    SeperableConv-20          [-1, 256, 34, 61]               0
           Conv2d-21          [-1, 256, 34, 61]           2,560
           Conv2d-22          [-1, 256, 34, 61]          65,792
    SeperableConv-23          [-1, 256, 34, 61]               0
           Conv2d-24          [-1, 256, 34, 61]           2,560
           Conv2d-25          [-1, 256, 34, 61]          65,792
    SeperableConv-26          [-1, 256, 34, 61]               0
           Conv2d-27          [-1, 256, 34, 61]           2,560
           Conv2d-28          [-1, 256, 34, 61]          65,792
    SeperableConv-29          [-1, 256, 34, 61]               0
           Conv2d-30          [-1, 256, 34, 61]           2,560
           Conv2d-31          [-1, 256, 34, 61]          65,792
    SeperableConv-32          [-1, 256, 34, 61]               0
           Conv2d-33          [-1, 256, 34, 61]           2,560
           Conv2d-34          [-1, 256, 34, 61]          65,792
    SeperableConv-35          [-1, 256, 34, 61]               0
           Conv2d-36          [-1, 256, 34, 61]           2,560
           Conv2d-37          [-1, 256, 34, 61]          65,792
    SeperableConv-38          [-1, 256, 34, 61]               0
           Conv2d-39          [-1, 256, 34, 61]           2,560
           Conv2d-40          [-1, 256, 34, 61]          65,792
    SeperableConv-41          [-1, 256, 34, 61]               0
           Conv2d-42           [-1, 17, 34, 61]           4,369
           Conv2d-43           [-1, 34, 34, 61]           8,738
           Conv2d-44           [-1, 32, 34, 61]           8,224
           Conv2d-45           [-1, 32, 34, 61]           8,224
================================================================
Total params: 577,459
Trainable params: 577,459
Non-trainable params: 0
----------------------------------------------------------------
Input size (MB): 5.82
Forward/backward pass size (MB): 335.55
Params size (MB): 2.20
Estimated Total Size (MB): 343.57
----------------------------------------------------------------



========================= MODEL REPORT ==========================
…
