…
Email: hiep.lchan@gmail.com
=================================================================




========================== Pytorch Info =========================
Working on GPU
CUDA devices count: 1
CUDA devices name: GeForce GTX 1080
=================================================================


------------
========================= MODEL SUMMARY =========================
----------------------------------------------------------------
        Layer (type)               Output Shape         Param #
================================================================
            Conv2d-1         [-1, 24, 265, 481]             672
         InputConv-2         [-1, 24, 265, 481]               0
            Conv2d-3         [-1, 24, 265, 481]             240
            Conv2d-4         [-1, 48, 265, 481]           1,200
     SeperableConv-5         [-1, 48, 265, 481]               0
            Conv2d-6         [-1, 48, 133, 241]             480
            Conv2d-7         [-1, 96, 133, 241]           4,704
     SeperableConv-8         [-1, 96, 133, 241]               0
            Conv2d-9         [-1, 96, 133, 241]             960
           Conv2d-10         [-1, 96, 133, 241]           9,312
    SeperableConv-11         [-1, 96, 133, 241]               0
           Conv2d-12          [-1, 96, 67, 121]             960
           Conv2d-13         [-1, 192, 67, 121]          18,624
    SeperableConv-14         [-1, 192, 67, 121]               0
           Conv2d-15         [-1, 192, 67, 121]           1,920
           Conv2d-16         [-1, 192, 67, 121]          37,056
    SeperableConv-17         [-1, 192, 67, 121]               0
           Conv2d-18          [-1, 192, 34, 61]           1,920
           Conv2d-19          [-1, 384, 34, 61]          74,112
    SeperableConv-20          [-1, 384, 34, 61]               0
           Conv2d-21          [-1, 384, 34, 61]           3,840
           Conv2d-22          [-1, 384, 34, 61]         147,840
    SeperableConv-23          [-1, 384, 34, 61]               0
           Conv2d-24          [-1, 384, 34, 61]           3,840
           Conv2d-25          [-1, 384, 34, 61]         147,840
    SeperableConv-26          [-1, 384, 34, 61]               0
           Conv2d-27          [-1, 384, 34, 61]           3,840
           Conv2d-28          [-1, 384, 34, 61]         147,840
    SeperableConv-29          [-1, 384, 34, 61]               0
           Conv2d-30          [-1, 384, 34, 61]           3,840
           Conv2d-31          [-1, 384, 34, 61]         147,840
    SeperableConv-32          [-1, 384, 34, 61]               0
           Conv2d-33          [-1, 384, 34, 61]           3,840
           Conv2d-34          [-1, 384, 34, 61]         147,840
    SeperableConv-35          [-1, 384, 34, 61]               0
           Conv2d-36          [-1, 384, 34, 61]           3,840
           Conv2d-37          [-1, 384, 34, 61]         147,840
    SeperableConv-38          [-1, 384, 34, 61]               0
           Conv2d-39          [-1, 384, 34, 61]           3,840
           Conv2d-40          [-1, 384, 34, 61]         147,840
    SeperableConv-41          [-1, 384, 34, 61]               0
           Conv2d-42           [-1, 17, 34, 61]           6,545
           Conv2d-43           [-1, 34, 34, 61]          13,090
           Conv2d-44           [-1, 32, 34, 61]          12,320
           Conv2d-45           [-1, 32, 34, 61]          12,320
================================================================
Total params: 1,258,195
Trainable params: 1,258,195
Non-trainable params: 0
----------------------------------------------------------------
Input size (MB): 5.82
Forward/backward pass size (MB): 502.42
Params size (MB): 4.80
Estimated Total Size (MB): 513.04
----------------------------------------------------------------



========================= MODEL REPORT ==========================
…
