


======== Micronet Deep Learning Vision ========
Version: 0.2
Author: Luong Chan Hiep
Email: hiep.lchan@gmail.com
===============================================



==================== MODEL REPORT ====================
----------------------------------------------------------------
        Layer (type)               Output Shape         Param #
================================================================
            Conv2d-1         [-1, 32, 112, 112]             864
       BatchNorm2d-2         [-1, 32, 112, 112]              64
             ReLU6-3         [-1, 32, 112, 112]               0
            Conv2d-4         [-1, 32, 112, 112]             288
       BatchNorm2d-5         [-1, 32, 112, 112]              64
             ReLU6-6         [-1, 32, 112, 112]               0
            Conv2d-7         [-1, 16, 112, 112]             512
       BatchNorm2d-8         [-1, 16, 112, 112]              32
            Conv2d-9         [-1, 48, 112, 112]             768
      BatchNorm2d-10         [-1, 48, 112, 112]              96
            ReLU6-11         [-1, 48, 112, 112]               0
           Conv2d-12           [-1, 48, 56, 56]             432
      BatchNorm2d-13           [-1, 48, 56, 56]              96
            ReLU6-14           [-1, 48, 56, 56]               0
           Conv2d-15           [-1, 24, 56, 56]           1,152
      BatchNorm2d-16           [-1, 24, 56, 56]              48
 InvertedResidual-17           [-1, 24, 56, 56]               0
           Conv2d-18           [-1, 72, 56, 56]           1,728
      BatchNorm2d-19           [-1, 72, 56, 56]             144
            ReLU6-20           [-1, 72, 56, 56]               0
           Conv2d-21           [-1, 72, 56, 56]             648
      BatchNorm2d-22           [-1, 72, 56, 56]             144
            ReLU6-23           [-1, 72, 56, 56]               0
           Conv2d-24           [-1, 24, 56, 56]           1,728
      BatchNorm2d-25           [-1, 24, 56, 56]              48
 InvertedResidual-26           [-1, 24, 56, 56]               0
           Conv2d-27           [-1, 72, 56, 56]           1,728
      BatchNorm2d-28           [-1, 72, 56, 56]             144
            ReLU6-29           [-1, 72, 56, 56]               0
           Conv2d-30           [-1, 72, 56, 56]             648
      BatchNorm2d-31           [-1, 72, 56, 56]             144
            ReLU6-32           [-1, 72, 56, 56]               0
           Conv2d-33           [-1, 24, 56, 56]           1,728
      BatchNorm2d-34           [-1, 24, 56, 56]              48
 InvertedResidual-35           [-1, 24, 56, 56]               0
           Conv2d-36           [-1, 72, 56, 56]           1,728
      BatchNorm2d-37           [-1, 72, 56, 56]             144
            ReLU6-38           [-1, 72, 56, 56]               0
           Conv2d-39           [-1, 72, 28, 28]           1,800
      BatchNorm2d-40           [-1, 72, 28, 28]             144
            ReLU6-41           [-1, 72, 28, 28]               0
           Conv2d-42           [-1, 40, 28, 28]           2,880
      BatchNorm2d-43           [-1, 40, 28, 28]              80
 InvertedResidual-44           [-1, 40, 28, 28]               0
           Conv2d-45          [-1, 120, 28, 28]           4,800
      BatchNorm2d-46          [-1, 120, 28, 28]             240
            ReLU6-47          [-1, 120, 28, 28]               0
           Conv2d-48          [-1, 120, 28, 28]           3,000
      BatchNorm2d-49          [-1, 120, 28, 28]             240
            ReLU6-50          [-1, 120, 28, 28]               0
           Conv2d-51           [-1, 40, 28, 28]           4,800
      BatchNorm2d-52           [-1, 40, 28, 28]              80
 InvertedResidual-53           [-1, 40, 28, 28]               0
           Conv2d-54          [-1, 120, 28, 28]           4,800
      BatchNorm2d-55          [-1, 120, 28, 28]             240
            ReLU6-56          [-1, 120, 28, 28]               0
           Conv2d-57          [-1, 120, 28, 28]           3,000
      BatchNorm2d-58          [-1, 120, 28, 28]             240
            ReLU6-59          [-1, 120, 28, 28]               0
           Conv2d-60           [-1, 40, 28, 28]           4,800
      BatchNorm2d-61           [-1, 40, 28, 28]              80
 InvertedResidual-62           [-1, 40, 28, 28]               0
           Conv2d-63          [-1, 240, 28, 28]           9,600
      BatchNorm2d-64          [-1, 240, 28, 28]             480
            ReLU6-65          [-1, 240, 28, 28]               0
           Conv2d-66          [-1, 240, 14, 14]           6,000
      BatchNorm2d-67          [-1, 240, 14, 14]             480
            ReLU6-68          [-1, 240, 14, 14]               0
           Conv2d-69           [-1, 80, 14, 14]          19,200
      BatchNorm2d-70           [-1, 80, 14, 14]             160
 InvertedResidual-71           [-1, 80, 14, 14]               0
           Conv2d-72          [-1, 480, 14, 14]          38,400
      BatchNorm2d-73          [-1, 480, 14, 14]             960
            ReLU6-74          [-1, 480, 14, 14]               0
           Conv2d-75          [-1, 480, 14, 14]          12,000
      BatchNorm2d-76          [-1, 480, 14, 14]             960
            ReLU6-77          [-1, 480, 14, 14]               0
           Conv2d-78           [-1, 80, 14, 14]          38,400
      BatchNorm2d-79           [-1, 80, 14, 14]             160
 InvertedResidual-80           [-1, 80, 14, 14]               0
           Conv2d-81          [-1, 480, 14, 14]          38,400
      BatchNorm2d-82          [-1, 480, 14, 14]             960
            ReLU6-83          [-1, 480, 14, 14]               0
           Conv2d-84          [-1, 480, 14, 14]          12,000
      BatchNorm2d-85          [-1, 480, 14, 14]             960
            ReLU6-86          [-1, 480, 14, 14]               0
           Conv2d-87           [-1, 80, 14, 14]          38,400
      BatchNorm2d-88           [-1, 80, 14, 14]             160
 InvertedResidual-89           [-1, 80, 14, 14]               0
           Conv2d-90          [-1, 480, 14, 14]          38,400
      BatchNorm2d-91          [-1, 480, 14, 14]             960
            ReLU6-92          [-1, 480, 14, 14]               0
           Conv2d-93          [-1, 480, 14, 14]           4,320
      BatchNorm2d-94          [-1, 480, 14, 14]             960
            ReLU6-95          [-1, 480, 14, 14]               0
           Conv2d-96           [-1, 96, 14, 14]          46,080
      BatchNorm2d-97           [-1, 96, 14, 14]             192
 InvertedResidual-98           [-1, 96, 14, 14]               0
           Conv2d-99          [-1, 576, 14, 14]          55,296
     BatchNorm2d-100          [-1, 576, 14, 14]           1,152
           ReLU6-101          [-1, 576, 14, 14]               0
          Conv2d-102          [-1, 576, 14, 14]           5,184
     BatchNorm2d-103          [-1, 576, 14, 14]           1,152
           ReLU6-104          [-1, 576, 14, 14]               0
          Conv2d-105           [-1, 96, 14, 14]          55,296
     BatchNorm2d-106           [-1, 96, 14, 14]             192
InvertedResidual-107           [-1, 96, 14, 14]               0
          Conv2d-108          [-1, 576, 14, 14]          55,296
     BatchNorm2d-109          [-1, 576, 14, 14]           1,152
           ReLU6-110          [-1, 576, 14, 14]               0
          Conv2d-111            [-1, 576, 7, 7]          14,400
     BatchNorm2d-112            [-1, 576, 7, 7]           1,152
           ReLU6-113            [-1, 576, 7, 7]               0
          Conv2d-114            [-1, 192, 7, 7]         110,592
     BatchNorm2d-115            [-1, 192, 7, 7]             384
InvertedResidual-116            [-1, 192, 7, 7]               0
          Conv2d-117           [-1, 1152, 7, 7]         221,184
     BatchNorm2d-118           [-1, 1152, 7, 7]           2,304
           ReLU6-119           [-1, 1152, 7, 7]               0
          Conv2d-120           [-1, 1152, 7, 7]          28,800
     BatchNorm2d-121           [-1, 1152, 7, 7]           2,304
           ReLU6-122           [-1, 1152, 7, 7]               0
          Conv2d-123            [-1, 192, 7, 7]         221,184
     BatchNorm2d-124            [-1, 192, 7, 7]             384
InvertedResidual-125            [-1, 192, 7, 7]               0
          Conv2d-126           [-1, 1152, 7, 7]         221,184
     BatchNorm2d-127           [-1, 1152, 7, 7]           2,304
           ReLU6-128           [-1, 1152, 7, 7]               0
          Conv2d-129           [-1, 1152, 7, 7]          28,800
     BatchNorm2d-130           [-1, 1152, 7, 7]           2,304
           ReLU6-131           [-1, 1152, 7, 7]               0
          Conv2d-132            [-1, 192, 7, 7]         221,184
     BatchNorm2d-133            [-1, 192, 7, 7]             384
InvertedResidual-134            [-1, 192, 7, 7]               0
          Conv2d-135           [-1, 1152, 7, 7]         221,184
     BatchNorm2d-136           [-1, 1152, 7, 7]           2,304
           ReLU6-137           [-1, 1152, 7, 7]               0
          Conv2d-138           [-1, 1152, 7, 7]          28,800
     BatchNorm2d-139           [-1, 1152, 7, 7]           2,304
           ReLU6-140           [-1, 1152, 7, 7]               0
          Conv2d-141            [-1, 192, 7, 7]         221,184
     BatchNorm2d-142            [-1, 192, 7, 7]             384
InvertedResidual-143            [-1, 192, 7, 7]               0
          Conv2d-144           [-1, 1152, 7, 7]         221,184
     BatchNorm2d-145           [-1, 1152, 7, 7]           2,304
           ReLU6-146           [-1, 1152, 7, 7]               0
          Conv2d-147           [-1, 1152, 7, 7]          10,368
     BatchNorm2d-148           [-1, 1152, 7, 7]           2,304
           ReLU6-149           [-1, 1152, 7, 7]               0
          Conv2d-150            [-1, 320, 7, 7]         368,640
     BatchNorm2d-151            [-1, 320, 7, 7]             640
InvertedResidual-152            [-1, 320, 7, 7]               0
          Conv2d-153           [-1, 1280, 7, 7]         409,600
     BatchNorm2d-154           [-1, 1280, 7, 7]           2,560
           ReLU6-155           [-1, 1280, 7, 7]               0
AdaptiveAvgPool2d-156           [-1, 1280, 1, 1]               0
         Dropout-157                 [-1, 1280]               0
          Linear-158                 [-1, 1000]       1,281,000
================================================================
Total params: 4,383,312
Trainable params: 4,383,312
Non-trainable params: 0
----------------------------------------------------------------
Input size (MB): 0.57
Forward/backward pass size (MB): 123.39
Params size (MB): 16.72
Estimated Total Size (MB): 140.68
----------------------------------------------------------------
==================== MODEL STATE DICTIONARY ====================
…
