…
================= Micronet Deep Learning Vision =================
Version: 0.2
Author: Luong Chan Hiep
Email: hiep.lchan@gmail.com
-----------------------------------------------
Working on GPU
CUDA devices count: 1
CUDA devices name: GeForce GTX 1080
=================================================================



========================= MODEL SUMMARY =========================
----------------------------------------------------------------
        Layer (type)               Output Shape         Param #
================================================================
            Conv2d-1         [-1, 16, 112, 112]             432
       BatchNorm2d-2         [-1, 16, 112, 112]              32
            hswish-3         [-1, 16, 112, 112]               0
            Conv2d-4         [-1, 16, 112, 112]             256
       BatchNorm2d-5         [-1, 16, 112, 112]              32
              ReLU-6         [-1, 16, 112, 112]               0
            Conv2d-7         [-1, 16, 112, 112]             144
       BatchNorm2d-8         [-1, 16, 112, 112]              32
              ReLU-9         [-1, 16, 112, 112]               0
           Conv2d-10         [-1, 16, 112, 112]             256
      BatchNorm2d-11         [-1, 16, 112, 112]              32
            Block-12         [-1, 16, 112, 112]               0
           Conv2d-13         [-1, 64, 112, 112]           1,024
      BatchNorm2d-14         [-1, 64, 112, 112]             128
             ReLU-15         [-1, 64, 112, 112]               0
           Conv2d-16           [-1, 64, 56, 56]             576
      BatchNorm2d-17           [-1, 64, 56, 56]             128
             ReLU-18           [-1, 64, 56, 56]               0
           Conv2d-19           [-1, 24, 56, 56]           1,536
      BatchNorm2d-20           [-1, 24, 56, 56]              48
            Block-21           [-1, 24, 56, 56]               0
           Conv2d-22           [-1, 72, 56, 56]           1,728
      BatchNorm2d-23           [-1, 72, 56, 56]             144
             ReLU-24           [-1, 72, 56, 56]               0
           Conv2d-25           [-1, 72, 56, 56]             648
      BatchNorm2d-26           [-1, 72, 56, 56]             144
             ReLU-27           [-1, 72, 56, 56]               0
           Conv2d-28           [-1, 24, 56, 56]           1,728
      BatchNorm2d-29           [-1, 24, 56, 56]              48
            Block-30           [-1, 24, 56, 56]               0
           Conv2d-31           [-1, 72, 56, 56]           1,728
      BatchNorm2d-32           [-1, 72, 56, 56]             144
             ReLU-33           [-1, 72, 56, 56]               0
           Conv2d-34           [-1, 72, 28, 28]           1,800
      BatchNorm2d-35           [-1, 72, 28, 28]             144
             ReLU-36           [-1, 72, 28, 28]               0
           Conv2d-37           [-1, 40, 28, 28]           2,880
      BatchNorm2d-38           [-1, 40, 28, 28]              80
           Conv2d-39           [-1, 10, 28, 28]             400
      BatchNorm2d-40           [-1, 10, 28, 28]              20
             ReLU-41           [-1, 10, 28, 28]               0
           Conv2d-42           [-1, 40, 28, 28]             400
      BatchNorm2d-43           [-1, 40, 28, 28]              80
         hsigmoid-44           [-1, 40, 28, 28]               0
         SeModule-45           [-1, 40, 28, 28]               0
            Block-46           [-1, 40, 28, 28]               0
           Conv2d-47          [-1, 120, 28, 28]           4,800
      BatchNorm2d-48          [-1, 120, 28, 28]             240
             ReLU-49          [-1, 120, 28, 28]               0
           Conv2d-50          [-1, 120, 28, 28]           3,000
      BatchNorm2d-51          [-1, 120, 28, 28]             240
             ReLU-52          [-1, 120, 28, 28]               0
           Conv2d-53           [-1, 40, 28, 28]           4,800
      BatchNorm2d-54           [-1, 40, 28, 28]              80
           Conv2d-55           [-1, 10, 28, 28]             400
      BatchNorm2d-56           [-1, 10, 28, 28]              20
             ReLU-57           [-1, 10, 28, 28]               0
           Conv2d-58           [-1, 40, 28, 28]             400
      BatchNorm2d-59           [-1, 40, 28, 28]              80
         hsigmoid-60           [-1, 40, 28, 28]               0
         SeModule-61           [-1, 40, 28, 28]               0
            Block-62           [-1, 40, 28, 28]               0
           Conv2d-63          [-1, 120, 28, 28]           4,800
      BatchNorm2d-64          [-1, 120, 28, 28]             240
             ReLU-65          [-1, 120, 28, 28]               0
           Conv2d-66          [-1, 120, 28, 28]           3,000
      BatchNorm2d-67          [-1, 120, 28, 28]             240
             ReLU-68          [-1, 120, 28, 28]               0
           Conv2d-69           [-1, 40, 28, 28]           4,800
      BatchNorm2d-70           [-1, 40, 28, 28]              80
           Conv2d-71           [-1, 10, 28, 28]             400
      BatchNorm2d-72           [-1, 10, 28, 28]              20
             ReLU-73           [-1, 10, 28, 28]               0
           Conv2d-74           [-1, 40, 28, 28]             400
      BatchNorm2d-75           [-1, 40, 28, 28]              80
         hsigmoid-76           [-1, 40, 28, 28]               0
         SeModule-77           [-1, 40, 28, 28]               0
            Block-78           [-1, 40, 28, 28]               0
           Conv2d-79          [-1, 240, 28, 28]           9,600
      BatchNorm2d-80          [-1, 240, 28, 28]             480
           hswish-81          [-1, 240, 28, 28]               0
           Conv2d-82          [-1, 240, 14, 14]           2,160
      BatchNorm2d-83          [-1, 240, 14, 14]             480
           hswish-84          [-1, 240, 14, 14]               0
           Conv2d-85           [-1, 80, 14, 14]          19,200
      BatchNorm2d-86           [-1, 80, 14, 14]             160
            Block-87           [-1, 80, 14, 14]               0
           Conv2d-88          [-1, 200, 14, 14]          16,000
      BatchNorm2d-89          [-1, 200, 14, 14]             400
           hswish-90          [-1, 200, 14, 14]               0
           Conv2d-91          [-1, 200, 14, 14]           1,800
      BatchNorm2d-92          [-1, 200, 14, 14]             400
           hswish-93          [-1, 200, 14, 14]               0
           Conv2d-94           [-1, 80, 14, 14]          16,000
      BatchNorm2d-95           [-1, 80, 14, 14]             160
            Block-96           [-1, 80, 14, 14]               0
           Conv2d-97          [-1, 184, 14, 14]          14,720
      BatchNorm2d-98          [-1, 184, 14, 14]             368
           hswish-99          [-1, 184, 14, 14]               0
          Conv2d-100          [-1, 184, 14, 14]           1,656
     BatchNorm2d-101          [-1, 184, 14, 14]             368
          hswish-102          [-1, 184, 14, 14]               0
          Conv2d-103           [-1, 80, 14, 14]          14,720
     BatchNorm2d-104           [-1, 80, 14, 14]             160
           Block-105           [-1, 80, 14, 14]               0
          Conv2d-106          [-1, 184, 14, 14]          14,720
     BatchNorm2d-107          [-1, 184, 14, 14]             368
          hswish-108          [-1, 184, 14, 14]               0
          Conv2d-109          [-1, 184, 14, 14]           1,656
     BatchNorm2d-110          [-1, 184, 14, 14]             368
          hswish-111          [-1, 184, 14, 14]               0
          Conv2d-112           [-1, 80, 14, 14]          14,720
     BatchNorm2d-113           [-1, 80, 14, 14]             160
           Block-114           [-1, 80, 14, 14]               0
          Conv2d-115          [-1, 480, 14, 14]          38,400
     BatchNorm2d-116          [-1, 480, 14, 14]             960
          hswish-117          [-1, 480, 14, 14]               0
          Conv2d-118          [-1, 480, 14, 14]           4,320
     BatchNorm2d-119          [-1, 480, 14, 14]             960
          hswish-120          [-1, 480, 14, 14]               0
          Conv2d-121          [-1, 112, 14, 14]          53,760
     BatchNorm2d-122          [-1, 112, 14, 14]             224
          Conv2d-123           [-1, 28, 14, 14]           3,136
     BatchNorm2d-124           [-1, 28, 14, 14]              56
            ReLU-125           [-1, 28, 14, 14]               0
          Conv2d-126          [-1, 112, 14, 14]           3,136
     BatchNorm2d-127          [-1, 112, 14, 14]             224
        hsigmoid-128          [-1, 112, 14, 14]               0
        SeModule-129          [-1, 112, 14, 14]               0
          Conv2d-130          [-1, 112, 14, 14]           8,960
     BatchNorm2d-131          [-1, 112, 14, 14]             224
           Block-132          [-1, 112, 14, 14]               0
          Conv2d-133          [-1, 672, 14, 14]          75,264
     BatchNorm2d-134          [-1, 672, 14, 14]           1,344
          hswish-135          [-1, 672, 14, 14]               0
          Conv2d-136          [-1, 672, 14, 14]           6,048
     BatchNorm2d-137          [-1, 672, 14, 14]           1,344
          hswish-138          [-1, 672, 14, 14]               0
          Conv2d-139          [-1, 112, 14, 14]          75,264
     BatchNorm2d-140          [-1, 112, 14, 14]             224
          Conv2d-141           [-1, 28, 14, 14]           3,136
     BatchNorm2d-142           [-1, 28, 14, 14]              56
            ReLU-143           [-1, 28, 14, 14]               0
          Conv2d-144          [-1, 112, 14, 14]           3,136
     BatchNorm2d-145          [-1, 112, 14, 14]             224
        hsigmoid-146          [-1, 112, 14, 14]               0
        SeModule-147          [-1, 112, 14, 14]               0
           Block-148          [-1, 112, 14, 14]               0
          Conv2d-149          [-1, 672, 14, 14]          75,264
     BatchNorm2d-150          [-1, 672, 14, 14]           1,344
          hswish-151          [-1, 672, 14, 14]               0
          Conv2d-152          [-1, 672, 14, 14]          16,800
     BatchNorm2d-153          [-1, 672, 14, 14]           1,344
          hswish-154          [-1, 672, 14, 14]               0
          Conv2d-155          [-1, 160, 14, 14]         107,520
     BatchNorm2d-156          [-1, 160, 14, 14]             320
          Conv2d-157           [-1, 40, 14, 14]           6,400
     BatchNorm2d-158           [-1, 40, 14, 14]              80
            ReLU-159           [-1, 40, 14, 14]               0
          Conv2d-160          [-1, 160, 14, 14]           6,400
     BatchNorm2d-161          [-1, 160, 14, 14]             320
        hsigmoid-162          [-1, 160, 14, 14]               0
        SeModule-163          [-1, 160, 14, 14]               0
          Conv2d-164          [-1, 160, 14, 14]          17,920
     BatchNorm2d-165          [-1, 160, 14, 14]             320
           Block-166          [-1, 160, 14, 14]               0
          Conv2d-167          [-1, 672, 14, 14]         107,520
     BatchNorm2d-168          [-1, 672, 14, 14]           1,344
          hswish-169          [-1, 672, 14, 14]               0
          Conv2d-170            [-1, 672, 7, 7]          16,800
     BatchNorm2d-171            [-1, 672, 7, 7]           1,344
          hswish-172            [-1, 672, 7, 7]               0
          Conv2d-173            [-1, 160, 7, 7]         107,520
     BatchNorm2d-174            [-1, 160, 7, 7]             320
          Conv2d-175             [-1, 40, 7, 7]           6,400
     BatchNorm2d-176             [-1, 40, 7, 7]              80
            ReLU-177             [-1, 40, 7, 7]               0
          Conv2d-178            [-1, 160, 7, 7]           6,400
     BatchNorm2d-179            [-1, 160, 7, 7]             320
        hsigmoid-180            [-1, 160, 7, 7]               0
        SeModule-181            [-1, 160, 7, 7]               0
           Block-182            [-1, 160, 7, 7]               0
          Conv2d-183            [-1, 960, 7, 7]         153,600
     BatchNorm2d-184            [-1, 960, 7, 7]           1,920
          hswish-185            [-1, 960, 7, 7]               0
          Conv2d-186            [-1, 960, 7, 7]          24,000
     BatchNorm2d-187            [-1, 960, 7, 7]           1,920
          hswish-188            [-1, 960, 7, 7]               0
          Conv2d-189            [-1, 160, 7, 7]         153,600
     BatchNorm2d-190            [-1, 160, 7, 7]             320
          Conv2d-191             [-1, 40, 7, 7]           6,400
     BatchNorm2d-192             [-1, 40, 7, 7]              80
            ReLU-193             [-1, 40, 7, 7]               0
          Conv2d-194            [-1, 160, 7, 7]           6,400
     BatchNorm2d-195            [-1, 160, 7, 7]             320
        hsigmoid-196            [-1, 160, 7, 7]               0
        SeModule-197            [-1, 160, 7, 7]               0
           Block-198            [-1, 160, 7, 7]               0
          Conv2d-199            [-1, 960, 7, 7]         153,600
     BatchNorm2d-200            [-1, 960, 7, 7]           1,920
          hswish-201            [-1, 960, 7, 7]               0
          Linear-202                 [-1, 1280]       1,230,080
     BatchNorm1d-203                 [-1, 1280]           2,560
          hswish-204                 [-1, 1280]               0
          Linear-205                 [-1, 1000]       1,281,000
================================================================
Total params: 3,955,916
Trainable params: 3,955,916
Non-trainable params: 0
----------------------------------------------------------------
Input size (MB): 0.57
Forward/backward pass size (MB): 117.27
Params size (MB): 15.09
Estimated Total Size (MB): 132.93
----------------------------------------------------------------



========================= MODEL REPORT ==========================
…
